{"format": "graph-model", "generatedBy": "2.7.0", "convertedBy": "TensorFlow.js Converter v3.13.0", "signature": {"inputs": {"input_1": {"name": "input_1:0", "dtype": "DT_FLOAT", "tensorShape": {"dim": [{"size": "-1"}, {"size": "224"}, {"size": "224"}, {"size": "3"}]}}}, "outputs": {"predictions": {"name": "Identity:0", "dtype": "DT_FLOAT", "tensorShape": {"dim": [{"size": "-1"}, {"size": "26"}]}}}}, "modelTopology": {"node": [{"name": "StatefulPartitionedCall/EfficientNetV1B0/tf.math.reduce_mean/Mean/reduction_indices", "op": "Const", "attr": {"dtype": {"type": "DT_INT32"}, "value": {"tensor": {"dtype": "DT_INT32", "tensorShape": {"dim": [{"size": "2"}]}}}}}, {"name": "StatefulPartitionedCall/EfficientNetV1B0/stack_0_block0_se_1_conv/Conv2D/ReadVariableOp", "op": "Const", "attr": {"dtype": {"type": "DT_FLOAT"}, "value": {"tensor": {"dtype": "DT_FLOAT", "tensorShape": {"dim": [{"size": "1"}, {"size": "1"}, {"size": "32"}, {"size": "8"}]}}}}}, {"name": "StatefulPartitionedCall/EfficientNetV1B0/stack_0_block0_se_1_conv/BiasAdd/ReadVariableOp", "op": "Const", "attr": {"dtype": {"type": "DT_FLOAT"}, "value": {"tensor": {"dtype": "DT_FLOAT", "tensorShape": {"dim": [{"size": "8"}]}}}}}, {"name": "StatefulPartitionedCall/EfficientNetV1B0/stack_0_block0_se_2_conv/Conv2D/ReadVariableOp", "op": "Const", "attr": {"dtype": {"type": "DT_FLOAT"}, "value": {"tensor": {"dtype": "DT_FLOAT", "tensorShape": {"dim": [{"size": "1"}, {"size": "1"}, {"size": "8"}, {"size": "32"}]}}}}}, {"name": "StatefulPartitionedCall/EfficientNetV1B0/stack_0_block0_se_2_conv/BiasAdd/ReadVariableOp", "op": "Const", "attr": {"dtype": {"type": "DT_FLOAT"}, "value": {"tensor": {"dtype": "DT_FLOAT", "tensorShape": {"dim": [{"size": "32"}]}}}}}, {"name": "StatefulPartitionedCall/EfficientNetV1B0/tf.math.reduce_mean_1/Mean/reduction_indices", "op": "Const", "attr": {"dtype": {"type": "DT_INT32"}, "value": {"tensor": {"dtype": "DT_INT32", "tensorShape": {"dim": [{"size": "2"}]}}}}}, {"name": "StatefulPartitionedCall/EfficientNetV1B0/stack_1_block0_se_1_conv/Conv2D/ReadVariableOp", "op": "Const", "attr": {"dtype": {"type": "DT_FLOAT"}, "value": {"tensor": {"dtype": "DT_FLOAT", "tensorShape": {"dim": [{"size": "1"}, {"size": "1"}, {"size": "96"}, {"size": "4"}]}}}}}, {"name": "StatefulPartitionedCall/EfficientNetV1B0/stack_1_block0_se_1_conv/BiasAdd/ReadVariableOp", "op": "Const", "attr": {"value": {"tensor": {"dtype": "DT_FLOAT", "tensorShape": {"dim": [{"size": "4"}]}}}, "dtype": {"type": "DT_FLOAT"}}}, {"name": "StatefulPartitionedCall/EfficientNetV1B0/stack_1_block0_se_2_conv/Conv2D/ReadVariableOp", "op": "Const", "attr": {"dtype": {"type": "DT_FLOAT"}, "value": {"tensor": {"dtype": "DT_FLOAT", "tensorShape": {"dim": [{"size": "1"}, {"size": "1"}, {"size": "4"}, {"size": "96"}]}}}}}, {"name": "StatefulPartitionedCall/EfficientNetV1B0/stack_1_block0_se_2_conv/BiasAdd/ReadVariableOp", "op": "Const", "attr": {"dtype": {"type": "DT_FLOAT"}, "value": {"tensor": {"dtype": "DT_FLOAT", "tensorShape": {"dim": [{"size": "96"}]}}}}}, {"name": "StatefulPartitionedCall/EfficientNetV1B0/tf.math.reduce_mean_2/Mean/reduction_indices", "op": "Const", "attr": {"dtype": {"type": "DT_INT32"}, "value": {"tensor": {"dtype": "DT_INT32", "tensorShape": {"dim": [{"size": "2"}]}}}}}, {"name": "StatefulPartitionedCall/EfficientNetV1B0/stack_1_block1_se_1_conv/Conv2D/ReadVariableOp", "op": "Const", "attr": {"dtype": {"type": "DT_FLOAT"}, "value": {"tensor": {"dtype": "DT_FLOAT", "tensorShape": {"dim": [{"size": "1"}, {"size": "1"}, {"size": "144"}, {"size": "6"}]}}}}}, {"name": "StatefulPartitionedCall/EfficientNetV1B0/stack_1_block1_se_1_conv/BiasAdd/ReadVariableOp", "op": "Const", "attr": {"dtype": {"type": "DT_FLOAT"}, "value": {"tensor": {"dtype": "DT_FLOAT", "tensorShape": {"dim": [{"size": "6"}]}}}}}, {"name": "StatefulPartitionedCall/EfficientNetV1B0/stack_1_block1_se_2_conv/Conv2D/ReadVariableOp", "op": "Const", "attr": {"dtype": {"type": "DT_FLOAT"}, "value": {"tensor": {"dtype": "DT_FLOAT", "tensorShape": {"dim": [{"size": "1"}, {"size": "1"}, {"size": "6"}, {"size": "144"}]}}}}}, {"name": "StatefulPartitionedCall/EfficientNetV1B0/stack_1_block1_se_2_conv/BiasAdd/ReadVariableOp", "op": "Const", "attr": {"dtype": {"type": "DT_FLOAT"}, "value": {"tensor": {"dtype": "DT_FLOAT", "tensorShape": {"dim": [{"size": "144"}]}}}}}, {"name": "StatefulPartitionedCall/EfficientNetV1B0/tf.math.reduce_mean_3/Mean/reduction_indices", "op": "Const", "attr": {"dtype": {"type": "DT_INT32"}, "value": {"tensor": {"dtype": "DT_INT32", "tensorShape": {"dim": [{"size": "2"}]}}}}}, {"name": "StatefulPartitionedCall/EfficientNetV1B0/stack_2_block0_se_1_conv/Conv2D/ReadVariableOp", "op": "Const", "attr": {"dtype": {"type": "DT_FLOAT"}, "value": {"tensor": {"dtype": "DT_FLOAT", "tensorShape": {"dim": [{"size": "1"}, {"size": "1"}, {"size": "144"}, {"size": "6"}]}}}}}, {"name": "StatefulPartitionedCall/EfficientNetV1B0/stack_2_block0_se_1_conv/BiasAdd/ReadVariableOp", "op": "Const", "attr": {"dtype": {"type": "DT_FLOAT"}, "value": {"tensor": {"dtype": "DT_FLOAT", "tensorShape": {"dim": [{"size": "6"}]}}}}}, {"name": "StatefulPartitionedCall/EfficientNetV1B0/stack_2_block0_se_2_conv/Conv2D/ReadVariableOp", "op": "Const", "attr": {"dtype": {"type": "DT_FLOAT"}, "value": {"tensor": {"dtype": "DT_FLOAT", "tensorShape": {"dim": [{"size": "1"}, {"size": "1"}, {"size": "6"}, {"size": "144"}]}}}}}, {"name": "StatefulPartitionedCall/EfficientNetV1B0/stack_2_block0_se_2_conv/BiasAdd/ReadVariableOp", "op": "Const", "attr": {"dtype": {"type": "DT_FLOAT"}, "value": {"tensor": {"dtype": "DT_FLOAT", "tensorShape": {"dim": [{"size": "144"}]}}}}}, {"name": "StatefulPartitionedCall/EfficientNetV1B0/tf.math.reduce_mean_4/Mean/reduction_indices", "op": "Const", "attr": {"dtype": {"type": "DT_INT32"}, "value": {"tensor": {"dtype": "DT_INT32", "tensorShape": {"dim": [{"size": "2"}]}}}}}, {"name": "StatefulPartitionedCall/EfficientNetV1B0/stack_2_block1_se_1_conv/Conv2D/ReadVariableOp", "op": "Const", "attr": {"dtype": {"type": "DT_FLOAT"}, "value": {"tensor": {"dtype": "DT_FLOAT", "tensorShape": {"dim": [{"size": "1"}, {"size": "1"}, {"size": "240"}, {"size": "10"}]}}}}}, {"name": "StatefulPartitionedCall/EfficientNetV1B0/stack_2_block1_se_1_conv/BiasAdd/ReadVariableOp", "op": "Const", "attr": {"dtype": {"type": "DT_FLOAT"}, "value": {"tensor": {"dtype": "DT_FLOAT", "tensorShape": {"dim": [{"size": "10"}]}}}}}, {"name": "StatefulPartitionedCall/EfficientNetV1B0/stack_2_block1_se_2_conv/Conv2D/ReadVariableOp", "op": "Const", "attr": {"dtype": {"type": "DT_FLOAT"}, "value": {"tensor": {"dtype": "DT_FLOAT", "tensorShape": {"dim": [{"size": "1"}, {"size": "1"}, {"size": "10"}, {"size": "240"}]}}}}}, {"name": "StatefulPartitionedCall/EfficientNetV1B0/stack_2_block1_se_2_conv/BiasAdd/ReadVariableOp", "op": "Const", "attr": {"dtype": {"type": "DT_FLOAT"}, "value": {"tensor": {"dtype": "DT_FLOAT", "tensorShape": {"dim": [{"size": "240"}]}}}}}, {"name": "StatefulPartitionedCall/EfficientNetV1B0/tf.math.reduce_mean_5/Mean/reduction_indices", "op": "Const", "attr": {"dtype": {"type": "DT_INT32"}, "value": {"tensor": {"dtype": "DT_INT32", "tensorShape": {"dim": [{"size": "2"}]}}}}}, {"name": "StatefulPartitionedCall/EfficientNetV1B0/stack_3_block0_se_1_conv/Conv2D/ReadVariableOp", "op": "Const", "attr": {"dtype": {"type": "DT_FLOAT"}, "value": {"tensor": {"dtype": "DT_FLOAT", "tensorShape": {"dim": [{"size": "1"}, {"size": "1"}, {"size": "240"}, {"size": "10"}]}}}}}, {"name": "StatefulPartitionedCall/EfficientNetV1B0/stack_3_block0_se_1_conv/BiasAdd/ReadVariableOp", "op": "Const", "attr": {"dtype": {"type": "DT_FLOAT"}, "value": {"tensor": {"dtype": "DT_FLOAT", "tensorShape": {"dim": [{"size": "10"}]}}}}}, {"name": "StatefulPartitionedCall/EfficientNetV1B0/stack_3_block0_se_2_conv/Conv2D/ReadVariableOp", "op": "Const", "attr": {"dtype": {"type": "DT_FLOAT"}, "value": {"tensor": {"dtype": "DT_FLOAT", "tensorShape": {"dim": [{"size": "1"}, {"size": "1"}, {"size": "10"}, {"size": "240"}]}}}}}, {"name": "StatefulPartitionedCall/EfficientNetV1B0/stack_3_block0_se_2_conv/BiasAdd/ReadVariableOp", "op": "Const", "attr": {"dtype": {"type": "DT_FLOAT"}, "value": {"tensor": {"dtype": "DT_FLOAT", "tensorShape": {"dim": [{"size": "240"}]}}}}}, {"name": "StatefulPartitionedCall/EfficientNetV1B0/tf.math.reduce_mean_6/Mean/reduction_indices", "op": "Const", "attr": {"dtype": {"type": "DT_INT32"}, "value": {"tensor": {"dtype": "DT_INT32", "tensorShape": {"dim": [{"size": "2"}]}}}}}, {"name": "StatefulPartitionedCall/EfficientNetV1B0/stack_3_block1_se_1_conv/Conv2D/ReadVariableOp", "op": "Const", "attr": {"dtype": {"type": "DT_FLOAT"}, "value": {"tensor": {"dtype": "DT_FLOAT", "tensorShape": {"dim": [{"size": "1"}, {"size": "1"}, {"size": "480"}, {"size": "20"}]}}}}}, {"name": "StatefulPartitionedCall/EfficientNetV1B0/stack_3_block1_se_1_conv/BiasAdd/ReadVariableOp", "op": "Const", "attr": {"dtype": {"type": "DT_FLOAT"}, "value": {"tensor": {"dtype": "DT_FLOAT", "tensorShape": {"dim": [{"size": "20"}]}}}}}, {"name": "StatefulPartitionedCall/EfficientNetV1B0/stack_3_block1_se_2_conv/Conv2D/ReadVariableOp", "op": "Const", "attr": {"dtype": {"type": "DT_FLOAT"}, "value": {"tensor": {"dtype": "DT_FLOAT", "tensorShape": {"dim": [{"size": "1"}, {"size": "1"}, {"size": "20"}, {"size": "480"}]}}}}}, {"name": "StatefulPartitionedCall/EfficientNetV1B0/stack_3_block1_se_2_conv/BiasAdd/ReadVariableOp", "op": "Const", "attr": {"dtype": {"type": "DT_FLOAT"}, "value": {"tensor": {"dtype": "DT_FLOAT", "tensorShape": {"dim": [{"size": "480"}]}}}}}, {"name": "StatefulPartitionedCall/EfficientNetV1B0/tf.math.reduce_mean_7/Mean/reduction_indices", "op": "Const", "attr": {"dtype": {"type": "DT_INT32"}, "value": {"tensor": {"dtype": "DT_INT32", "tensorShape": {"dim": [{"size": "2"}]}}}}}, {"name": "StatefulPartitionedCall/EfficientNetV1B0/stack_3_block2_se_1_conv/Conv2D/ReadVariableOp", "op": "Const", "attr": {"dtype": {"type": "DT_FLOAT"}, "value": {"tensor": {"dtype": "DT_FLOAT", "tensorShape": {"dim": [{"size": "1"}, {"size": "1"}, {"size": "480"}, {"size": "20"}]}}}}}, {"name": "StatefulPartitionedCall/EfficientNetV1B0/stack_3_block2_se_1_conv/BiasAdd/ReadVariableOp", "op": "Const", "attr": {"dtype": {"type": "DT_FLOAT"}, "value": {"tensor": {"dtype": "DT_FLOAT", "tensorShape": {"dim": [{"size": "20"}]}}}}}, {"name": "StatefulPartitionedCall/EfficientNetV1B0/stack_3_block2_se_2_conv/Conv2D/ReadVariableOp", "op": "Const", "attr": {"dtype": {"type": "DT_FLOAT"}, "value": {"tensor": {"dtype": "DT_FLOAT", "tensorShape": {"dim": [{"size": "1"}, {"size": "1"}, {"size": "20"}, {"size": "480"}]}}}}}, {"name": "StatefulPartitionedCall/EfficientNetV1B0/stack_3_block2_se_2_conv/BiasAdd/ReadVariableOp", "op": "Const", "attr": {"dtype": {"type": "DT_FLOAT"}, "value": {"tensor": {"dtype": "DT_FLOAT", "tensorShape": {"dim": [{"size": "480"}]}}}}}, {"name": "StatefulPartitionedCall/EfficientNetV1B0/tf.math.reduce_mean_8/Mean/reduction_indices", "op": "Const", "attr": {"dtype": {"type": "DT_INT32"}, "value": {"tensor": {"dtype": "DT_INT32", "tensorShape": {"dim": [{"size": "2"}]}}}}}, {"name": "StatefulPartitionedCall/EfficientNetV1B0/stack_4_block0_se_1_conv/Conv2D/ReadVariableOp", "op": "Const", "attr": {"dtype": {"type": "DT_FLOAT"}, "value": {"tensor": {"dtype": "DT_FLOAT", "tensorShape": {"dim": [{"size": "1"}, {"size": "1"}, {"size": "480"}, {"size": "20"}]}}}}}, {"name": "StatefulPartitionedCall/EfficientNetV1B0/stack_4_block0_se_1_conv/BiasAdd/ReadVariableOp", "op": "Const", "attr": {"dtype": {"type": "DT_FLOAT"}, "value": {"tensor": {"dtype": "DT_FLOAT", "tensorShape": {"dim": [{"size": "20"}]}}}}}, {"name": "StatefulPartitionedCall/EfficientNetV1B0/stack_4_block0_se_2_conv/Conv2D/ReadVariableOp", "op": "Const", "attr": {"dtype": {"type": "DT_FLOAT"}, "value": {"tensor": {"dtype": "DT_FLOAT", "tensorShape": {"dim": [{"size": "1"}, {"size": "1"}, {"size": "20"}, {"size": "480"}]}}}}}, {"name": "StatefulPartitionedCall/EfficientNetV1B0/stack_4_block0_se_2_conv/BiasAdd/ReadVariableOp", "op": "Const", "attr": {"dtype": {"type": "DT_FLOAT"}, "value": {"tensor": {"dtype": "DT_FLOAT", "tensorShape": {"dim": [{"size": "480"}]}}}}}, {"name": "StatefulPartitionedCall/EfficientNetV1B0/tf.math.reduce_mean_9/Mean/reduction_indices", "op": "Const", "attr": {"value": {"tensor": {"dtype": "DT_INT32", "tensorShape": {"dim": [{"size": "2"}]}}}, "dtype": {"type": "DT_INT32"}}}, {"name": "StatefulPartitionedCall/EfficientNetV1B0/stack_4_block1_se_1_conv/Conv2D/ReadVariableOp", "op": "Const", "attr": {"dtype": {"type": "DT_FLOAT"}, "value": {"tensor": {"dtype": "DT_FLOAT", "tensorShape": {"dim": [{"size": "1"}, {"size": "1"}, {"size": "672"}, {"size": "28"}]}}}}}, {"name": "StatefulPartitionedCall/EfficientNetV1B0/stack_4_block1_se_1_conv/BiasAdd/ReadVariableOp", "op": "Const", "attr": {"dtype": {"type": "DT_FLOAT"}, "value": {"tensor": {"dtype": "DT_FLOAT", "tensorShape": {"dim": [{"size": "28"}]}}}}}, {"name": "StatefulPartitionedCall/EfficientNetV1B0/stack_4_block1_se_2_conv/Conv2D/ReadVariableOp", "op": "Const", "attr": {"dtype": {"type": "DT_FLOAT"}, "value": {"tensor": {"dtype": "DT_FLOAT", "tensorShape": {"dim": [{"size": "1"}, {"size": "1"}, {"size": "28"}, {"size": "672"}]}}}}}, {"name": "StatefulPartitionedCall/EfficientNetV1B0/stack_4_block1_se_2_conv/BiasAdd/ReadVariableOp", "op": "Const", "attr": {"dtype": {"type": "DT_FLOAT"}, "value": {"tensor": {"dtype": "DT_FLOAT", "tensorShape": {"dim": [{"size": "672"}]}}}}}, {"name": "StatefulPartitionedCall/EfficientNetV1B0/tf.math.reduce_mean_10/Mean/reduction_indices", "op": "Const", "attr": {"dtype": {"type": "DT_INT32"}, "value": {"tensor": {"dtype": "DT_INT32", "tensorShape": {"dim": [{"size": "2"}]}}}}}, {"name": "StatefulPartitionedCall/EfficientNetV1B0/stack_4_block2_se_1_conv/Conv2D/ReadVariableOp", "op": "Const", "attr": {"dtype": {"type": "DT_FLOAT"}, "value": {"tensor": {"dtype": "DT_FLOAT", "tensorShape": {"dim": [{"size": "1"}, {"size": "1"}, {"size": "672"}, {"size": "28"}]}}}}}, {"name": "StatefulPartitionedCall/EfficientNetV1B0/stack_4_block2_se_1_conv/BiasAdd/ReadVariableOp", "op": "Const", "attr": {"dtype": {"type": "DT_FLOAT"}, "value": {"tensor": {"dtype": "DT_FLOAT", "tensorShape": {"dim": [{"size": "28"}]}}}}}, {"name": "StatefulPartitionedCall/EfficientNetV1B0/stack_4_block2_se_2_conv/Conv2D/ReadVariableOp", "op": "Const", "attr": {"dtype": {"type": "DT_FLOAT"}, "value": {"tensor": {"dtype": "DT_FLOAT", "tensorShape": {"dim": [{"size": "1"}, {"size": "1"}, {"size": "28"}, {"size": "672"}]}}}}}, {"name": "StatefulPartitionedCall/EfficientNetV1B0/stack_4_block2_se_2_conv/BiasAdd/ReadVariableOp", "op": "Const", "attr": {"dtype": {"type": "DT_FLOAT"}, "value": {"tensor": {"dtype": "DT_FLOAT", "tensorShape": {"dim": [{"size": "672"}]}}}}}, {"name": "StatefulPartitionedCall/EfficientNetV1B0/tf.math.reduce_mean_11/Mean/reduction_indices", "op": "Const", "attr": {"dtype": {"type": "DT_INT32"}, "value": {"tensor": {"dtype": "DT_INT32", "tensorShape": {"dim": [{"size": "2"}]}}}}}, {"name": "StatefulPartitionedCall/EfficientNetV1B0/stack_5_block0_se_1_conv/Conv2D/ReadVariableOp", "op": "Const", "attr": {"dtype": {"type": "DT_FLOAT"}, "value": {"tensor": {"dtype": "DT_FLOAT", "tensorShape": {"dim": [{"size": "1"}, {"size": "1"}, {"size": "672"}, {"size": "28"}]}}}}}, {"name": "StatefulPartitionedCall/EfficientNetV1B0/stack_5_block0_se_1_conv/BiasAdd/ReadVariableOp", "op": "Const", "attr": {"dtype": {"type": "DT_FLOAT"}, "value": {"tensor": {"dtype": "DT_FLOAT", "tensorShape": {"dim": [{"size": "28"}]}}}}}, {"name": "StatefulPartitionedCall/EfficientNetV1B0/stack_5_block0_se_2_conv/Conv2D/ReadVariableOp", "op": "Const", "attr": {"dtype": {"type": "DT_FLOAT"}, "value": {"tensor": {"dtype": "DT_FLOAT", "tensorShape": {"dim": [{"size": "1"}, {"size": "1"}, {"size": "28"}, {"size": "672"}]}}}}}, {"name": "StatefulPartitionedCall/EfficientNetV1B0/stack_5_block0_se_2_conv/BiasAdd/ReadVariableOp", "op": "Const", "attr": {"dtype": {"type": "DT_FLOAT"}, "value": {"tensor": {"dtype": "DT_FLOAT", "tensorShape": {"dim": [{"size": "672"}]}}}}}, {"name": "StatefulPartitionedCall/EfficientNetV1B0/tf.math.reduce_mean_12/Mean/reduction_indices", "op": "Const", "attr": {"dtype": {"type": "DT_INT32"}, "value": {"tensor": {"dtype": "DT_INT32", "tensorShape": {"dim": [{"size": "2"}]}}}}}, {"name": "StatefulPartitionedCall/EfficientNetV1B0/stack_5_block1_se_1_conv/Conv2D/ReadVariableOp", "op": "Const", "attr": {"dtype": {"type": "DT_FLOAT"}, "value": {"tensor": {"dtype": "DT_FLOAT", "tensorShape": {"dim": [{"size": "1"}, {"size": "1"}, {"size": "1152"}, {"size": "48"}]}}}}}, {"name": "StatefulPartitionedCall/EfficientNetV1B0/stack_5_block1_se_1_conv/BiasAdd/ReadVariableOp", "op": "Const", "attr": {"dtype": {"type": "DT_FLOAT"}, "value": {"tensor": {"dtype": "DT_FLOAT", "tensorShape": {"dim": [{"size": "48"}]}}}}}, {"name": "StatefulPartitionedCall/EfficientNetV1B0/stack_5_block1_se_2_conv/Conv2D/ReadVariableOp", "op": "Const", "attr": {"dtype": {"type": "DT_FLOAT"}, "value": {"tensor": {"dtype": "DT_FLOAT", "tensorShape": {"dim": [{"size": "1"}, {"size": "1"}, {"size": "48"}, {"size": "1152"}]}}}}}, {"name": "StatefulPartitionedCall/EfficientNetV1B0/stack_5_block1_se_2_conv/BiasAdd/ReadVariableOp", "op": "Const", "attr": {"value": {"tensor": {"dtype": "DT_FLOAT", "tensorShape": {"dim": [{"size": "1152"}]}}}, "dtype": {"type": "DT_FLOAT"}}}, {"name": "StatefulPartitionedCall/EfficientNetV1B0/tf.math.reduce_mean_13/Mean/reduction_indices", "op": "Const", "attr": {"dtype": {"type": "DT_INT32"}, "value": {"tensor": {"dtype": "DT_INT32", "tensorShape": {"dim": [{"size": "2"}]}}}}}, {"name": "StatefulPartitionedCall/EfficientNetV1B0/stack_5_block2_se_1_conv/Conv2D/ReadVariableOp", "op": "Const", "attr": {"value": {"tensor": {"dtype": "DT_FLOAT", "tensorShape": {"dim": [{"size": "1"}, {"size": "1"}, {"size": "1152"}, {"size": "48"}]}}}, "dtype": {"type": "DT_FLOAT"}}}, {"name": "StatefulPartitionedCall/EfficientNetV1B0/stack_5_block2_se_1_conv/BiasAdd/ReadVariableOp", "op": "Const", "attr": {"dtype": {"type": "DT_FLOAT"}, "value": {"tensor": {"dtype": "DT_FLOAT", "tensorShape": {"dim": [{"size": "48"}]}}}}}, {"name": "StatefulPartitionedCall/EfficientNetV1B0/stack_5_block2_se_2_conv/Conv2D/ReadVariableOp", "op": "Const", "attr": {"value": {"tensor": {"dtype": "DT_FLOAT", "tensorShape": {"dim": [{"size": "1"}, {"size": "1"}, {"size": "48"}, {"size": "1152"}]}}}, "dtype": {"type": "DT_FLOAT"}}}, {"name": "StatefulPartitionedCall/EfficientNetV1B0/stack_5_block2_se_2_conv/BiasAdd/ReadVariableOp", "op": "Const", "attr": {"value": {"tensor": {"dtype": "DT_FLOAT", "tensorShape": {"dim": [{"size": "1152"}]}}}, "dtype": {"type": "DT_FLOAT"}}}, {"name": "StatefulPartitionedCall/EfficientNetV1B0/tf.math.reduce_mean_14/Mean/reduction_indices", "op": "Const", "attr": {"value": {"tensor": {"dtype": "DT_INT32", "tensorShape": {"dim": [{"size": "2"}]}}}, "dtype": {"type": "DT_INT32"}}}, {"name": "StatefulPartitionedCall/EfficientNetV1B0/stack_5_block3_se_1_conv/Conv2D/ReadVariableOp", "op": "Const", "attr": {"value": {"tensor": {"dtype": "DT_FLOAT", "tensorShape": {"dim": [{"size": "1"}, {"size": "1"}, {"size": "1152"}, {"size": "48"}]}}}, "dtype": {"type": "DT_FLOAT"}}}, {"name": "StatefulPartitionedCall/EfficientNetV1B0/stack_5_block3_se_1_conv/BiasAdd/ReadVariableOp", "op": "Const", "attr": {"value": {"tensor": {"dtype": "DT_FLOAT", "tensorShape": {"dim": [{"size": "48"}]}}}, "dtype": {"type": "DT_FLOAT"}}}, {"name": "StatefulPartitionedCall/EfficientNetV1B0/stack_5_block3_se_2_conv/Conv2D/ReadVariableOp", "op": "Const", "attr": {"dtype": {"type": "DT_FLOAT"}, "value": {"tensor": {"dtype": "DT_FLOAT", "tensorShape": {"dim": [{"size": "1"}, {"size": "1"}, {"size": "48"}, {"size": "1152"}]}}}}}, {"name": "StatefulPartitionedCall/EfficientNetV1B0/stack_5_block3_se_2_conv/BiasAdd/ReadVariableOp", "op": "Const", "attr": {"value": {"tensor": {"dtype": "DT_FLOAT", "tensorShape": {"dim": [{"size": "1152"}]}}}, "dtype": {"type": "DT_FLOAT"}}}, {"name": "StatefulPartitionedCall/EfficientNetV1B0/tf.math.reduce_mean_15/Mean/reduction_indices", "op": "Const", "attr": {"dtype": {"type": "DT_INT32"}, "value": {"tensor": {"dtype": "DT_INT32", "tensorShape": {"dim": [{"size": "2"}]}}}}}, {"name": "StatefulPartitionedCall/EfficientNetV1B0/stack_6_block0_se_1_conv/Conv2D/ReadVariableOp", "op": "Const", "attr": {"value": {"tensor": {"dtype": "DT_FLOAT", "tensorShape": {"dim": [{"size": "1"}, {"size": "1"}, {"size": "1152"}, {"size": "48"}]}}}, "dtype": {"type": "DT_FLOAT"}}}, {"name": "StatefulPartitionedCall/EfficientNetV1B0/stack_6_block0_se_1_conv/BiasAdd/ReadVariableOp", "op": "Const", "attr": {"dtype": {"type": "DT_FLOAT"}, "value": {"tensor": {"dtype": "DT_FLOAT", "tensorShape": {"dim": [{"size": "48"}]}}}}}, {"name": "StatefulPartitionedCall/EfficientNetV1B0/stack_6_block0_se_2_conv/Conv2D/ReadVariableOp", "op": "Const", "attr": {"dtype": {"type": "DT_FLOAT"}, "value": {"tensor": {"dtype": "DT_FLOAT", "tensorShape": {"dim": [{"size": "1"}, {"size": "1"}, {"size": "48"}, {"size": "1152"}]}}}}}, {"name": "StatefulPartitionedCall/EfficientNetV1B0/stack_6_block0_se_2_conv/BiasAdd/ReadVariableOp", "op": "Const", "attr": {"value": {"tensor": {"dtype": "DT_FLOAT", "tensorShape": {"dim": [{"size": "1152"}]}}}, "dtype": {"type": "DT_FLOAT"}}}, {"name": "StatefulPartitionedCall/EfficientNetV1B0/avg_pool/Mean/reduction_indices", "op": "Const", "attr": {"dtype": {"type": "DT_INT32"}, "value": {"tensor": {"dtype": "DT_INT32", "tensorShape": {"dim": [{"size": "2"}]}}}}}, {"name": "StatefulPartitionedCall/EfficientNetV1B0/predictions/MatMul/ReadVariableOp", "op": "Const", "attr": {"dtype": {"type": "DT_FLOAT"}, "value": {"tensor": {"dtype": "DT_FLOAT", "tensorShape": {"dim": [{"size": "1280"}, {"size": "26"}]}}}}}, {"name": "StatefulPartitionedCall/EfficientNetV1B0/predictions/BiasAdd/ReadVariableOp", "op": "Const", "attr": {"value": {"tensor": {"dtype": "DT_FLOAT", "tensorShape": {"dim": [{"size": "26"}]}}}, "dtype": {"type": "DT_FLOAT"}}}, {"name": "input_1", "op": "Placeholder", "attr": {"shape": {"shape": {"dim": [{"size": "-1"}, {"size": "224"}, {"size": "224"}, {"size": "3"}]}}, "dtype": {"type": "DT_FLOAT"}}}, {"name": "StatefulPartitionedCall/EfficientNetV1B0/stem_conv/Conv2D_weights", "op": "Const", "attr": {"value": {"tensor": {"dtype": "DT_FLOAT", "tensorShape": {"dim": [{"size": "3"}, {"size": "3"}, {"size": "3"}, {"size": "32"}]}}}, "dtype": {"type": "DT_FLOAT"}}}, {"name": "StatefulPartitionedCall/EfficientNetV1B0/post_conv/Conv2D_weights", "op": "Const", "attr": {"value": {"tensor": {"dtype": "DT_FLOAT", "tensorShape": {"dim": [{"size": "1"}, {"size": "1"}, {"size": "320"}, {"size": "1280"}]}}}, "dtype": {"type": "DT_FLOAT"}}}, {"name": "StatefulPartitionedCall/EfficientNetV1B0/stem_conv/Conv2D_bn_offset", "op": "Const", "attr": {"dtype": {"type": "DT_FLOAT"}, "value": {"tensor": {"dtype": "DT_FLOAT", "tensorShape": {"dim": [{"size": "32"}]}}}}}, {"name": "StatefulPartitionedCall/EfficientNetV1B0/stack_0_block0_MB_dw_/depthwise_weights", "op": "Const", "attr": {"dtype": {"type": "DT_FLOAT"}, "value": {"tensor": {"dtype": "DT_FLOAT", "tensorShape": {"dim": [{"size": "3"}, {"size": "3"}, {"size": "32"}, {"size": "1"}]}}}}}, {"name": "StatefulPartitionedCall/EfficientNetV1B0/stack_0_block0_MB_dw_/depthwise_bn_offset", "op": "Const", "attr": {"dtype": {"type": "DT_FLOAT"}, "value": {"tensor": {"dtype": "DT_FLOAT", "tensorShape": {"dim": [{"size": "32"}]}}}}}, {"name": "StatefulPartitionedCall/EfficientNetV1B0/stack_5_block2_MB_pw_conv/Conv2D_bn_offset", "op": "Const", "attr": {"dtype": {"type": "DT_FLOAT"}, "value": {"tensor": {"dtype": "DT_FLOAT", "tensorShape": {"dim": [{"size": "192"}]}}}}}, {"name": "StatefulPartitionedCall/EfficientNetV1B0/stack_0_block0_MB_pw_conv/Conv2D_weights", "op": "Const", "attr": {"dtype": {"type": "DT_FLOAT"}, "value": {"tensor": {"dtype": "DT_FLOAT", "tensorShape": {"dim": [{"size": "1"}, {"size": "1"}, {"size": "32"}, {"size": "16"}]}}}}}, {"name": "StatefulPartitionedCall/EfficientNetV1B0/stack_0_block0_MB_pw_conv/Conv2D_bn_offset", "op": "Const", "attr": {"dtype": {"type": "DT_FLOAT"}, "value": {"tensor": {"dtype": "DT_FLOAT", "tensorShape": {"dim": [{"size": "16"}]}}}}}, {"name": "StatefulPartitionedCall/EfficientNetV1B0/stack_1_block0_sortcut_conv/Conv2D_weights", "op": "Const", "attr": {"value": {"tensor": {"dtype": "DT_FLOAT", "tensorShape": {"dim": [{"size": "1"}, {"size": "1"}, {"size": "16"}, {"size": "96"}]}}}, "dtype": {"type": "DT_FLOAT"}}}, {"name": "StatefulPartitionedCall/EfficientNetV1B0/stack_5_block3_sortcut_conv/Conv2D_weights", "op": "Const", "attr": {"dtype": {"type": "DT_FLOAT"}, "value": {"tensor": {"dtype": "DT_FLOAT", "tensorShape": {"dim": [{"size": "1"}, {"size": "1"}, {"size": "192"}, {"size": "1152"}]}}}}}, {"name": "StatefulPartitionedCall/EfficientNetV1B0/stack_1_block0_sortcut_conv/Conv2D_bn_offset", "op": "Const", "attr": {"dtype": {"type": "DT_FLOAT"}, "value": {"tensor": {"dtype": "DT_FLOAT", "tensorShape": {"dim": [{"size": "96"}]}}}}}, {"name": "StatefulPartitionedCall/EfficientNetV1B0/stack_1_block0_MB_dw_/depthwise_weights", "op": "Const", "attr": {"dtype": {"type": "DT_FLOAT"}, "value": {"tensor": {"dtype": "DT_FLOAT", "tensorShape": {"dim": [{"size": "3"}, {"size": "3"}, {"size": "96"}, {"size": "1"}]}}}}}, {"name": "StatefulPartitionedCall/EfficientNetV1B0/stack_1_block0_MB_dw_/depthwise_bn_offset", "op": "Const", "attr": {"dtype": {"type": "DT_FLOAT"}, "value": {"tensor": {"dtype": "DT_FLOAT", "tensorShape": {"dim": [{"size": "96"}]}}}}}, {"name": "StatefulPartitionedCall/EfficientNetV1B0/stack_5_block3_sortcut_conv/Conv2D_bn_offset", "op": "Const", "attr": {"dtype": {"type": "DT_FLOAT"}, "value": {"tensor": {"dtype": "DT_FLOAT", "tensorShape": {"dim": [{"size": "1152"}]}}}}}, {"name": "StatefulPartitionedCall/EfficientNetV1B0/stack_1_block0_MB_pw_conv/Conv2D_weights", "op": "Const", "attr": {"value": {"tensor": {"dtype": "DT_FLOAT", "tensorShape": {"dim": [{"size": "1"}, {"size": "1"}, {"size": "96"}, {"size": "24"}]}}}, "dtype": {"type": "DT_FLOAT"}}}, {"name": "StatefulPartitionedCall/EfficientNetV1B0/stack_1_block0_MB_pw_conv/Conv2D_bn_offset", "op": "Const", "attr": {"dtype": {"type": "DT_FLOAT"}, "value": {"tensor": {"dtype": "DT_FLOAT", "tensorShape": {"dim": [{"size": "24"}]}}}}}, {"name": "StatefulPartitionedCall/EfficientNetV1B0/stack_1_block1_sortcut_conv/Conv2D_weights", "op": "Const", "attr": {"value": {"tensor": {"dtype": "DT_FLOAT", "tensorShape": {"dim": [{"size": "1"}, {"size": "1"}, {"size": "24"}, {"size": "144"}]}}}, "dtype": {"type": "DT_FLOAT"}}}, {"name": "StatefulPartitionedCall/EfficientNetV1B0/stack_1_block1_sortcut_conv/Conv2D_bn_offset", "op": "Const", "attr": {"dtype": {"type": "DT_FLOAT"}, "value": {"tensor": {"dtype": "DT_FLOAT", "tensorShape": {"dim": [{"size": "144"}]}}}}}, {"name": "StatefulPartitionedCall/EfficientNetV1B0/stack_1_block1_MB_dw_/depthwise_weights", "op": "Const", "attr": {"value": {"tensor": {"dtype": "DT_FLOAT", "tensorShape": {"dim": [{"size": "3"}, {"size": "3"}, {"size": "144"}, {"size": "1"}]}}}, "dtype": {"type": "DT_FLOAT"}}}, {"name": "StatefulPartitionedCall/EfficientNetV1B0/stack_1_block1_MB_dw_/depthwise_bn_offset", "op": "Const", "attr": {"dtype": {"type": "DT_FLOAT"}, "value": {"tensor": {"dtype": "DT_FLOAT", "tensorShape": {"dim": [{"size": "144"}]}}}}}, {"name": "StatefulPartitionedCall/EfficientNetV1B0/stack_5_block3_MB_dw_/depthwise_weights", "op": "Const", "attr": {"dtype": {"type": "DT_FLOAT"}, "value": {"tensor": {"dtype": "DT_FLOAT", "tensorShape": {"dim": [{"size": "5"}, {"size": "5"}, {"size": "1152"}, {"size": "1"}]}}}}}, {"name": "StatefulPartitionedCall/EfficientNetV1B0/stack_1_block1_MB_pw_conv/Conv2D_weights", "op": "Const", "attr": {"dtype": {"type": "DT_FLOAT"}, "value": {"tensor": {"dtype": "DT_FLOAT", "tensorShape": {"dim": [{"size": "1"}, {"size": "1"}, {"size": "144"}, {"size": "24"}]}}}}}, {"name": "StatefulPartitionedCall/EfficientNetV1B0/stack_1_block1_MB_pw_conv/Conv2D_bn_offset", "op": "Const", "attr": {"value": {"tensor": {"dtype": "DT_FLOAT", "tensorShape": {"dim": [{"size": "24"}]}}}, "dtype": {"type": "DT_FLOAT"}}}, {"name": "StatefulPartitionedCall/EfficientNetV1B0/stack_2_block0_sortcut_conv/Conv2D_weights", "op": "Const", "attr": {"dtype": {"type": "DT_FLOAT"}, "value": {"tensor": {"dtype": "DT_FLOAT", "tensorShape": {"dim": [{"size": "1"}, {"size": "1"}, {"size": "24"}, {"size": "144"}]}}}}}, {"name": "StatefulPartitionedCall/EfficientNetV1B0/stack_5_block3_MB_dw_/depthwise_bn_offset", "op": "Const", "attr": {"value": {"tensor": {"dtype": "DT_FLOAT", "tensorShape": {"dim": [{"size": "1152"}]}}}, "dtype": {"type": "DT_FLOAT"}}}, {"name": "StatefulPartitionedCall/EfficientNetV1B0/stack_2_block0_sortcut_conv/Conv2D_bn_offset", "op": "Const", "attr": {"dtype": {"type": "DT_FLOAT"}, "value": {"tensor": {"dtype": "DT_FLOAT", "tensorShape": {"dim": [{"size": "144"}]}}}}}, {"name": "StatefulPartitionedCall/EfficientNetV1B0/stack_2_block0_MB_dw_/depthwise_weights", "op": "Const", "attr": {"dtype": {"type": "DT_FLOAT"}, "value": {"tensor": {"dtype": "DT_FLOAT", "tensorShape": {"dim": [{"size": "5"}, {"size": "5"}, {"size": "144"}, {"size": "1"}]}}}}}, {"name": "StatefulPartitionedCall/EfficientNetV1B0/stack_2_block0_MB_dw_/depthwise_bn_offset", "op": "Const", "attr": {"dtype": {"type": "DT_FLOAT"}, "value": {"tensor": {"dtype": "DT_FLOAT", "tensorShape": {"dim": [{"size": "144"}]}}}}}, {"name": "StatefulPartitionedCall/EfficientNetV1B0/stack_2_block0_MB_pw_conv/Conv2D_weights", "op": "Const", "attr": {"dtype": {"type": "DT_FLOAT"}, "value": {"tensor": {"dtype": "DT_FLOAT", "tensorShape": {"dim": [{"size": "1"}, {"size": "1"}, {"size": "144"}, {"size": "40"}]}}}}}, {"name": "StatefulPartitionedCall/EfficientNetV1B0/stack_2_block0_MB_pw_conv/Conv2D_bn_offset", "op": "Const", "attr": {"dtype": {"type": "DT_FLOAT"}, "value": {"tensor": {"dtype": "DT_FLOAT", "tensorShape": {"dim": [{"size": "40"}]}}}}}, {"name": "StatefulPartitionedCall/EfficientNetV1B0/stack_2_block1_sortcut_conv/Conv2D_weights", "op": "Const", "attr": {"dtype": {"type": "DT_FLOAT"}, "value": {"tensor": {"dtype": "DT_FLOAT", "tensorShape": {"dim": [{"size": "1"}, {"size": "1"}, {"size": "40"}, {"size": "240"}]}}}}}, {"name": "StatefulPartitionedCall/EfficientNetV1B0/stack_2_block1_sortcut_conv/Conv2D_bn_offset", "op": "Const", "attr": {"value": {"tensor": {"dtype": "DT_FLOAT", "tensorShape": {"dim": [{"size": "240"}]}}}, "dtype": {"type": "DT_FLOAT"}}}, {"name": "StatefulPartitionedCall/EfficientNetV1B0/stack_2_block1_MB_dw_/depthwise_weights", "op": "Const", "attr": {"value": {"tensor": {"dtype": "DT_FLOAT", "tensorShape": {"dim": [{"size": "5"}, {"size": "5"}, {"size": "240"}, {"size": "1"}]}}}, "dtype": {"type": "DT_FLOAT"}}}, {"name": "StatefulPartitionedCall/EfficientNetV1B0/stack_2_block1_MB_dw_/depthwise_bn_offset", "op": "Const", "attr": {"value": {"tensor": {"dtype": "DT_FLOAT", "tensorShape": {"dim": [{"size": "240"}]}}}, "dtype": {"type": "DT_FLOAT"}}}, {"name": "StatefulPartitionedCall/EfficientNetV1B0/post_conv/Conv2D_bn_offset", "op": "Const", "attr": {"dtype": {"type": "DT_FLOAT"}, "value": {"tensor": {"dtype": "DT_FLOAT", "tensorShape": {"dim": [{"size": "1280"}]}}}}}, {"name": "StatefulPartitionedCall/EfficientNetV1B0/stack_2_block1_MB_pw_conv/Conv2D_weights", "op": "Const", "attr": {"value": {"tensor": {"dtype": "DT_FLOAT", "tensorShape": {"dim": [{"size": "1"}, {"size": "1"}, {"size": "240"}, {"size": "40"}]}}}, "dtype": {"type": "DT_FLOAT"}}}, {"name": "StatefulPartitionedCall/EfficientNetV1B0/stack_2_block1_MB_pw_conv/Conv2D_bn_offset", "op": "Const", "attr": {"dtype": {"type": "DT_FLOAT"}, "value": {"tensor": {"dtype": "DT_FLOAT", "tensorShape": {"dim": [{"size": "40"}]}}}}}, {"name": "StatefulPartitionedCall/EfficientNetV1B0/stack_3_block0_sortcut_conv/Conv2D_weights", "op": "Const", "attr": {"dtype": {"type": "DT_FLOAT"}, "value": {"tensor": {"dtype": "DT_FLOAT", "tensorShape": {"dim": [{"size": "1"}, {"size": "1"}, {"size": "40"}, {"size": "240"}]}}}}}, {"name": "StatefulPartitionedCall/EfficientNetV1B0/stack_3_block0_sortcut_conv/Conv2D_bn_offset", "op": "Const", "attr": {"dtype": {"type": "DT_FLOAT"}, "value": {"tensor": {"dtype": "DT_FLOAT", "tensorShape": {"dim": [{"size": "240"}]}}}}}, {"name": "StatefulPartitionedCall/EfficientNetV1B0/stack_3_block0_MB_dw_/depthwise_weights", "op": "Const", "attr": {"dtype": {"type": "DT_FLOAT"}, "value": {"tensor": {"dtype": "DT_FLOAT", "tensorShape": {"dim": [{"size": "3"}, {"size": "3"}, {"size": "240"}, {"size": "1"}]}}}}}, {"name": "StatefulPartitionedCall/EfficientNetV1B0/stack_3_block0_MB_dw_/depthwise_bn_offset", "op": "Const", "attr": {"dtype": {"type": "DT_FLOAT"}, "value": {"tensor": {"dtype": "DT_FLOAT", "tensorShape": {"dim": [{"size": "240"}]}}}}}, {"name": "StatefulPartitionedCall/EfficientNetV1B0/stack_3_block0_MB_pw_conv/Conv2D_weights", "op": "Const", "attr": {"dtype": {"type": "DT_FLOAT"}, "value": {"tensor": {"dtype": "DT_FLOAT", "tensorShape": {"dim": [{"size": "1"}, {"size": "1"}, {"size": "240"}, {"size": "80"}]}}}}}, {"name": "StatefulPartitionedCall/EfficientNetV1B0/stack_3_block0_MB_pw_conv/Conv2D_bn_offset", "op": "Const", "attr": {"value": {"tensor": {"dtype": "DT_FLOAT", "tensorShape": {"dim": [{"size": "80"}]}}}, "dtype": {"type": "DT_FLOAT"}}}, {"name": "StatefulPartitionedCall/EfficientNetV1B0/stack_3_block1_sortcut_conv/Conv2D_weights", "op": "Const", "attr": {"value": {"tensor": {"dtype": "DT_FLOAT", "tensorShape": {"dim": [{"size": "1"}, {"size": "1"}, {"size": "80"}, {"size": "480"}]}}}, "dtype": {"type": "DT_FLOAT"}}}, {"name": "StatefulPartitionedCall/EfficientNetV1B0/stack_3_block1_sortcut_conv/Conv2D_bn_offset", "op": "Const", "attr": {"dtype": {"type": "DT_FLOAT"}, "value": {"tensor": {"dtype": "DT_FLOAT", "tensorShape": {"dim": [{"size": "480"}]}}}}}, {"name": "StatefulPartitionedCall/EfficientNetV1B0/stack_3_block1_MB_dw_/depthwise_weights", "op": "Const", "attr": {"dtype": {"type": "DT_FLOAT"}, "value": {"tensor": {"dtype": "DT_FLOAT", "tensorShape": {"dim": [{"size": "3"}, {"size": "3"}, {"size": "480"}, {"size": "1"}]}}}}}, {"name": "StatefulPartitionedCall/EfficientNetV1B0/stack_3_block1_MB_dw_/depthwise_bn_offset", "op": "Const", "attr": {"dtype": {"type": "DT_FLOAT"}, "value": {"tensor": {"dtype": "DT_FLOAT", "tensorShape": {"dim": [{"size": "480"}]}}}}}, {"name": "StatefulPartitionedCall/EfficientNetV1B0/stack_5_block3_MB_pw_conv/Conv2D_weights", "op": "Const", "attr": {"value": {"tensor": {"dtype": "DT_FLOAT", "tensorShape": {"dim": [{"size": "1"}, {"size": "1"}, {"size": "1152"}, {"size": "192"}]}}}, "dtype": {"type": "DT_FLOAT"}}}, {"name": "StatefulPartitionedCall/EfficientNetV1B0/stack_3_block1_MB_pw_conv/Conv2D_weights", "op": "Const", "attr": {"dtype": {"type": "DT_FLOAT"}, "value": {"tensor": {"dtype": "DT_FLOAT", "tensorShape": {"dim": [{"size": "1"}, {"size": "1"}, {"size": "480"}, {"size": "80"}]}}}}}, {"name": "StatefulPartitionedCall/EfficientNetV1B0/stack_5_block3_MB_pw_conv/Conv2D_bn_offset", "op": "Const", "attr": {"dtype": {"type": "DT_FLOAT"}, "value": {"tensor": {"dtype": "DT_FLOAT", "tensorShape": {"dim": [{"size": "192"}]}}}}}, {"name": "StatefulPartitionedCall/EfficientNetV1B0/stack_3_block1_MB_pw_conv/Conv2D_bn_offset", "op": "Const", "attr": {"dtype": {"type": "DT_FLOAT"}, "value": {"tensor": {"dtype": "DT_FLOAT", "tensorShape": {"dim": [{"size": "80"}]}}}}}, {"name": "StatefulPartitionedCall/EfficientNetV1B0/stack_3_block2_sortcut_conv/Conv2D_weights", "op": "Const", "attr": {"dtype": {"type": "DT_FLOAT"}, "value": {"tensor": {"dtype": "DT_FLOAT", "tensorShape": {"dim": [{"size": "1"}, {"size": "1"}, {"size": "80"}, {"size": "480"}]}}}}}, {"name": "StatefulPartitionedCall/EfficientNetV1B0/stack_3_block2_sortcut_conv/Conv2D_bn_offset", "op": "Const", "attr": {"value": {"tensor": {"dtype": "DT_FLOAT", "tensorShape": {"dim": [{"size": "480"}]}}}, "dtype": {"type": "DT_FLOAT"}}}, {"name": "StatefulPartitionedCall/EfficientNetV1B0/stack_3_block2_MB_dw_/depthwise_weights", "op": "Const", "attr": {"value": {"tensor": {"dtype": "DT_FLOAT", "tensorShape": {"dim": [{"size": "3"}, {"size": "3"}, {"size": "480"}, {"size": "1"}]}}}, "dtype": {"type": "DT_FLOAT"}}}, {"name": "StatefulPartitionedCall/EfficientNetV1B0/stack_3_block2_MB_dw_/depthwise_bn_offset", "op": "Const", "attr": {"dtype": {"type": "DT_FLOAT"}, "value": {"tensor": {"dtype": "DT_FLOAT", "tensorShape": {"dim": [{"size": "480"}]}}}}}, {"name": "StatefulPartitionedCall/EfficientNetV1B0/stack_6_block0_sortcut_conv/Conv2D_weights", "op": "Const", "attr": {"value": {"tensor": {"dtype": "DT_FLOAT", "tensorShape": {"dim": [{"size": "1"}, {"size": "1"}, {"size": "192"}, {"size": "1152"}]}}}, "dtype": {"type": "DT_FLOAT"}}}, {"name": "StatefulPartitionedCall/EfficientNetV1B0/stack_3_block2_MB_pw_conv/Conv2D_weights", "op": "Const", "attr": {"dtype": {"type": "DT_FLOAT"}, "value": {"tensor": {"dtype": "DT_FLOAT", "tensorShape": {"dim": [{"size": "1"}, {"size": "1"}, {"size": "480"}, {"size": "80"}]}}}}}, {"name": "StatefulPartitionedCall/EfficientNetV1B0/stack_3_block2_MB_pw_conv/Conv2D_bn_offset", "op": "Const", "attr": {"dtype": {"type": "DT_FLOAT"}, "value": {"tensor": {"dtype": "DT_FLOAT", "tensorShape": {"dim": [{"size": "80"}]}}}}}, {"name": "StatefulPartitionedCall/EfficientNetV1B0/stack_4_block0_sortcut_conv/Conv2D_weights", "op": "Const", "attr": {"dtype": {"type": "DT_FLOAT"}, "value": {"tensor": {"dtype": "DT_FLOAT", "tensorShape": {"dim": [{"size": "1"}, {"size": "1"}, {"size": "80"}, {"size": "480"}]}}}}}, {"name": "StatefulPartitionedCall/EfficientNetV1B0/stack_6_block0_sortcut_conv/Conv2D_bn_offset", "op": "Const", "attr": {"value": {"tensor": {"dtype": "DT_FLOAT", "tensorShape": {"dim": [{"size": "1152"}]}}}, "dtype": {"type": "DT_FLOAT"}}}, {"name": "StatefulPartitionedCall/EfficientNetV1B0/stack_4_block0_sortcut_conv/Conv2D_bn_offset", "op": "Const", "attr": {"dtype": {"type": "DT_FLOAT"}, "value": {"tensor": {"dtype": "DT_FLOAT", "tensorShape": {"dim": [{"size": "480"}]}}}}}, {"name": "StatefulPartitionedCall/EfficientNetV1B0/stack_4_block0_MB_dw_/depthwise_weights", "op": "Const", "attr": {"dtype": {"type": "DT_FLOAT"}, "value": {"tensor": {"dtype": "DT_FLOAT", "tensorShape": {"dim": [{"size": "5"}, {"size": "5"}, {"size": "480"}, {"size": "1"}]}}}}}, {"name": "StatefulPartitionedCall/EfficientNetV1B0/stack_4_block0_MB_dw_/depthwise_bn_offset", "op": "Const", "attr": {"value": {"tensor": {"dtype": "DT_FLOAT", "tensorShape": {"dim": [{"size": "480"}]}}}, "dtype": {"type": "DT_FLOAT"}}}, {"name": "StatefulPartitionedCall/EfficientNetV1B0/stack_4_block0_MB_pw_conv/Conv2D_weights", "op": "Const", "attr": {"value": {"tensor": {"dtype": "DT_FLOAT", "tensorShape": {"dim": [{"size": "1"}, {"size": "1"}, {"size": "480"}, {"size": "112"}]}}}, "dtype": {"type": "DT_FLOAT"}}}, {"name": "StatefulPartitionedCall/EfficientNetV1B0/stack_4_block0_MB_pw_conv/Conv2D_bn_offset", "op": "Const", "attr": {"dtype": {"type": "DT_FLOAT"}, "value": {"tensor": {"dtype": "DT_FLOAT", "tensorShape": {"dim": [{"size": "112"}]}}}}}, {"name": "StatefulPartitionedCall/EfficientNetV1B0/stack_4_block1_sortcut_conv/Conv2D_weights", "op": "Const", "attr": {"dtype": {"type": "DT_FLOAT"}, "value": {"tensor": {"dtype": "DT_FLOAT", "tensorShape": {"dim": [{"size": "1"}, {"size": "1"}, {"size": "112"}, {"size": "672"}]}}}}}, {"name": "StatefulPartitionedCall/EfficientNetV1B0/stack_6_block0_MB_dw_/depthwise_weights", "op": "Const", "attr": {"dtype": {"type": "DT_FLOAT"}, "value": {"tensor": {"dtype": "DT_FLOAT", "tensorShape": {"dim": [{"size": "3"}, {"size": "3"}, {"size": "1152"}, {"size": "1"}]}}}}}, {"name": "StatefulPartitionedCall/EfficientNetV1B0/stack_4_block1_sortcut_conv/Conv2D_bn_offset", "op": "Const", "attr": {"value": {"tensor": {"dtype": "DT_FLOAT", "tensorShape": {"dim": [{"size": "672"}]}}}, "dtype": {"type": "DT_FLOAT"}}}, {"name": "StatefulPartitionedCall/EfficientNetV1B0/stack_4_block1_MB_dw_/depthwise_weights", "op": "Const", "attr": {"dtype": {"type": "DT_FLOAT"}, "value": {"tensor": {"dtype": "DT_FLOAT", "tensorShape": {"dim": [{"size": "5"}, {"size": "5"}, {"size": "672"}, {"size": "1"}]}}}}}, {"name": "StatefulPartitionedCall/EfficientNetV1B0/stack_4_block1_MB_dw_/depthwise_bn_offset", "op": "Const", "attr": {"value": {"tensor": {"dtype": "DT_FLOAT", "tensorShape": {"dim": [{"size": "672"}]}}}, "dtype": {"type": "DT_FLOAT"}}}, {"name": "StatefulPartitionedCall/EfficientNetV1B0/stack_6_block0_MB_dw_/depthwise_bn_offset", "op": "Const", "attr": {"dtype": {"type": "DT_FLOAT"}, "value": {"tensor": {"dtype": "DT_FLOAT", "tensorShape": {"dim": [{"size": "1152"}]}}}}}, {"name": "StatefulPartitionedCall/EfficientNetV1B0/stack_4_block1_MB_pw_conv/Conv2D_weights", "op": "Const", "attr": {"value": {"tensor": {"dtype": "DT_FLOAT", "tensorShape": {"dim": [{"size": "1"}, {"size": "1"}, {"size": "672"}, {"size": "112"}]}}}, "dtype": {"type": "DT_FLOAT"}}}, {"name": "StatefulPartitionedCall/EfficientNetV1B0/stack_4_block1_MB_pw_conv/Conv2D_bn_offset", "op": "Const", "attr": {"dtype": {"type": "DT_FLOAT"}, "value": {"tensor": {"dtype": "DT_FLOAT", "tensorShape": {"dim": [{"size": "112"}]}}}}}, {"name": "StatefulPartitionedCall/EfficientNetV1B0/stack_4_block2_sortcut_conv/Conv2D_weights", "op": "Const", "attr": {"dtype": {"type": "DT_FLOAT"}, "value": {"tensor": {"dtype": "DT_FLOAT", "tensorShape": {"dim": [{"size": "1"}, {"size": "1"}, {"size": "112"}, {"size": "672"}]}}}}}, {"name": "StatefulPartitionedCall/EfficientNetV1B0/stack_4_block2_sortcut_conv/Conv2D_bn_offset", "op": "Const", "attr": {"dtype": {"type": "DT_FLOAT"}, "value": {"tensor": {"dtype": "DT_FLOAT", "tensorShape": {"dim": [{"size": "672"}]}}}}}, {"name": "StatefulPartitionedCall/EfficientNetV1B0/stack_4_block2_MB_dw_/depthwise_weights", "op": "Const", "attr": {"dtype": {"type": "DT_FLOAT"}, "value": {"tensor": {"dtype": "DT_FLOAT", "tensorShape": {"dim": [{"size": "5"}, {"size": "5"}, {"size": "672"}, {"size": "1"}]}}}}}, {"name": "StatefulPartitionedCall/EfficientNetV1B0/stack_4_block2_MB_dw_/depthwise_bn_offset", "op": "Const", "attr": {"value": {"tensor": {"dtype": "DT_FLOAT", "tensorShape": {"dim": [{"size": "672"}]}}}, "dtype": {"type": "DT_FLOAT"}}}, {"name": "StatefulPartitionedCall/EfficientNetV1B0/stack_4_block2_MB_pw_conv/Conv2D_weights", "op": "Const", "attr": {"dtype": {"type": "DT_FLOAT"}, "value": {"tensor": {"dtype": "DT_FLOAT", "tensorShape": {"dim": [{"size": "1"}, {"size": "1"}, {"size": "672"}, {"size": "112"}]}}}}}, {"name": "StatefulPartitionedCall/EfficientNetV1B0/stack_4_block2_MB_pw_conv/Conv2D_bn_offset", "op": "Const", "attr": {"value": {"tensor": {"dtype": "DT_FLOAT", "tensorShape": {"dim": [{"size": "112"}]}}}, "dtype": {"type": "DT_FLOAT"}}}, {"name": "StatefulPartitionedCall/EfficientNetV1B0/stack_5_block0_sortcut_conv/Conv2D_weights", "op": "Const", "attr": {"dtype": {"type": "DT_FLOAT"}, "value": {"tensor": {"dtype": "DT_FLOAT", "tensorShape": {"dim": [{"size": "1"}, {"size": "1"}, {"size": "112"}, {"size": "672"}]}}}}}, {"name": "StatefulPartitionedCall/EfficientNetV1B0/stack_5_block0_sortcut_conv/Conv2D_bn_offset", "op": "Const", "attr": {"dtype": {"type": "DT_FLOAT"}, "value": {"tensor": {"dtype": "DT_FLOAT", "tensorShape": {"dim": [{"size": "672"}]}}}}}, {"name": "StatefulPartitionedCall/EfficientNetV1B0/stack_5_block0_MB_dw_/depthwise_weights", "op": "Const", "attr": {"value": {"tensor": {"dtype": "DT_FLOAT", "tensorShape": {"dim": [{"size": "5"}, {"size": "5"}, {"size": "672"}, {"size": "1"}]}}}, "dtype": {"type": "DT_FLOAT"}}}, {"name": "StatefulPartitionedCall/EfficientNetV1B0/stack_5_block0_MB_dw_/depthwise_bn_offset", "op": "Const", "attr": {"value": {"tensor": {"dtype": "DT_FLOAT", "tensorShape": {"dim": [{"size": "672"}]}}}, "dtype": {"type": "DT_FLOAT"}}}, {"name": "StatefulPartitionedCall/EfficientNetV1B0/stack_5_block0_MB_pw_conv/Conv2D_weights", "op": "Const", "attr": {"value": {"tensor": {"dtype": "DT_FLOAT", "tensorShape": {"dim": [{"size": "1"}, {"size": "1"}, {"size": "672"}, {"size": "192"}]}}}, "dtype": {"type": "DT_FLOAT"}}}, {"name": "StatefulPartitionedCall/EfficientNetV1B0/stack_5_block0_MB_pw_conv/Conv2D_bn_offset", "op": "Const", "attr": {"value": {"tensor": {"dtype": "DT_FLOAT", "tensorShape": {"dim": [{"size": "192"}]}}}, "dtype": {"type": "DT_FLOAT"}}}, {"name": "StatefulPartitionedCall/EfficientNetV1B0/stack_5_block1_sortcut_conv/Conv2D_weights", "op": "Const", "attr": {"dtype": {"type": "DT_FLOAT"}, "value": {"tensor": {"dtype": "DT_FLOAT", "tensorShape": {"dim": [{"size": "1"}, {"size": "1"}, {"size": "192"}, {"size": "1152"}]}}}}}, {"name": "StatefulPartitionedCall/EfficientNetV1B0/stack_5_block1_sortcut_conv/Conv2D_bn_offset", "op": "Const", "attr": {"value": {"tensor": {"dtype": "DT_FLOAT", "tensorShape": {"dim": [{"size": "1152"}]}}}, "dtype": {"type": "DT_FLOAT"}}}, {"name": "StatefulPartitionedCall/EfficientNetV1B0/stack_5_block1_MB_dw_/depthwise_weights", "op": "Const", "attr": {"dtype": {"type": "DT_FLOAT"}, "value": {"tensor": {"dtype": "DT_FLOAT", "tensorShape": {"dim": [{"size": "5"}, {"size": "5"}, {"size": "1152"}, {"size": "1"}]}}}}}, {"name": "StatefulPartitionedCall/EfficientNetV1B0/stack_5_block1_MB_dw_/depthwise_bn_offset", "op": "Const", "attr": {"dtype": {"type": "DT_FLOAT"}, "value": {"tensor": {"dtype": "DT_FLOAT", "tensorShape": {"dim": [{"size": "1152"}]}}}}}, {"name": "StatefulPartitionedCall/EfficientNetV1B0/stack_5_block1_MB_pw_conv/Conv2D_weights", "op": "Const", "attr": {"value": {"tensor": {"dtype": "DT_FLOAT", "tensorShape": {"dim": [{"size": "1"}, {"size": "1"}, {"size": "1152"}, {"size": "192"}]}}}, "dtype": {"type": "DT_FLOAT"}}}, {"name": "StatefulPartitionedCall/EfficientNetV1B0/stack_6_block0_MB_pw_conv/Conv2D_weights", "op": "Const", "attr": {"value": {"tensor": {"dtype": "DT_FLOAT", "tensorShape": {"dim": [{"size": "1"}, {"size": "1"}, {"size": "1152"}, {"size": "320"}]}}}, "dtype": {"type": "DT_FLOAT"}}}, {"name": "StatefulPartitionedCall/EfficientNetV1B0/stack_5_block1_MB_pw_conv/Conv2D_bn_offset", "op": "Const", "attr": {"dtype": {"type": "DT_FLOAT"}, "value": {"tensor": {"dtype": "DT_FLOAT", "tensorShape": {"dim": [{"size": "192"}]}}}}}, {"name": "StatefulPartitionedCall/EfficientNetV1B0/stack_5_block2_sortcut_conv/Conv2D_weights", "op": "Const", "attr": {"dtype": {"type": "DT_FLOAT"}, "value": {"tensor": {"dtype": "DT_FLOAT", "tensorShape": {"dim": [{"size": "1"}, {"size": "1"}, {"size": "192"}, {"size": "1152"}]}}}}}, {"name": "StatefulPartitionedCall/EfficientNetV1B0/stack_5_block2_sortcut_conv/Conv2D_bn_offset", "op": "Const", "attr": {"value": {"tensor": {"dtype": "DT_FLOAT", "tensorShape": {"dim": [{"size": "1152"}]}}}, "dtype": {"type": "DT_FLOAT"}}}, {"name": "StatefulPartitionedCall/EfficientNetV1B0/stack_5_block2_MB_dw_/depthwise_weights", "op": "Const", "attr": {"value": {"tensor": {"dtype": "DT_FLOAT", "tensorShape": {"dim": [{"size": "5"}, {"size": "5"}, {"size": "1152"}, {"size": "1"}]}}}, "dtype": {"type": "DT_FLOAT"}}}, {"name": "StatefulPartitionedCall/EfficientNetV1B0/stack_5_block2_MB_dw_/depthwise_bn_offset", "op": "Const", "attr": {"value": {"tensor": {"dtype": "DT_FLOAT", "tensorShape": {"dim": [{"size": "1152"}]}}}, "dtype": {"type": "DT_FLOAT"}}}, {"name": "StatefulPartitionedCall/EfficientNetV1B0/stack_6_block0_MB_pw_conv/Conv2D_bn_offset", "op": "Const", "attr": {"value": {"tensor": {"dtype": "DT_FLOAT", "tensorShape": {"dim": [{"size": "320"}]}}}, "dtype": {"type": "DT_FLOAT"}}}, {"name": "StatefulPartitionedCall/EfficientNetV1B0/stack_5_block2_MB_pw_conv/Conv2D_weights", "op": "Const", "attr": {"value": {"tensor": {"dtype": "DT_FLOAT", "tensorShape": {"dim": [{"size": "1"}, {"size": "1"}, {"size": "1152"}, {"size": "192"}]}}}, "dtype": {"type": "DT_FLOAT"}}}, {"name": "StatefulPartitionedCall/EfficientNetV1B0/stem_bn/FusedBatchNormV3", "op": "_FusedConv2D", "input": ["input_1", "StatefulPartitionedCall/EfficientNetV1B0/stem_conv/Conv2D_weights", "StatefulPartitionedCall/EfficientNetV1B0/stem_conv/Conv2D_bn_offset"], "device": "/device:CPU:0", "attr": {"fused_ops": {"list": {"s": ["Qmlhc0FkZA=="]}}, "data_format": {"s": "TkhXQw=="}, "epsilon": {"f": 0.0}, "use_cudnn_on_gpu": {"b": true}, "dilations": {"list": {"i": ["1", "1", "1", "1"]}}, "strides": {"list": {"i": ["1", "2", "2", "1"]}}, "explicit_paddings": {"list": {}}, "padding": {"s": "U0FNRQ=="}, "T": {"type": "DT_FLOAT"}, "num_args": {"i": "1"}}}, {"name": "StatefulPartitionedCall/EfficientNetV1B0/stem_swish/Sigmoid", "op": "Sigmoid", "input": ["StatefulPartitionedCall/EfficientNetV1B0/stem_bn/FusedBatchNormV3"], "attr": {"T": {"type": "DT_FLOAT"}}}, {"name": "StatefulPartitionedCall/EfficientNetV1B0/stem_swish/mul", "op": "Mul", "input": ["StatefulPartitionedCall/EfficientNetV1B0/stem_bn/FusedBatchNormV3", "StatefulPartitionedCall/EfficientNetV1B0/stem_swish/Sigmoid"], "attr": {"T": {"type": "DT_FLOAT"}}}, {"name": "StatefulPartitionedCall/EfficientNetV1B0/stack_0_block0_MB_dw_/depthwise", "op": "FusedDepthwiseConv2dNative", "input": ["StatefulPartitionedCall/EfficientNetV1B0/stem_swish/mul", "StatefulPartitionedCall/EfficientNetV1B0/stack_0_block0_MB_dw_/depthwise_weights", "StatefulPartitionedCall/EfficientNetV1B0/stack_0_block0_MB_dw_/depthwise_bn_offset"], "attr": {"strides": {"list": {"i": ["1", "1", "1", "1"]}}, "dilations": {"list": {"i": ["1", "1", "1", "1"]}}, "T": {"type": "DT_FLOAT"}, "num_args": {"i": "1"}, "padding": {"s": "U0FNRQ=="}, "data_format": {"s": "TkhXQw=="}, "explicit_paddings": {"list": {}}, "fused_ops": {"list": {"s": ["Qmlhc0FkZA=="]}}}}, {"name": "StatefulPartitionedCall/EfficientNetV1B0/stack_0_block0_MB_dw_swish/Sigmoid", "op": "Sigmoid", "input": ["StatefulPartitionedCall/EfficientNetV1B0/stack_0_block0_MB_dw_/depthwise"], "attr": {"T": {"type": "DT_FLOAT"}}}, {"name": "StatefulPartitionedCall/EfficientNetV1B0/stack_0_block0_MB_dw_swish/mul", "op": "Mul", "input": ["StatefulPartitionedCall/EfficientNetV1B0/stack_0_block0_MB_dw_/depthwise", "StatefulPartitionedCall/EfficientNetV1B0/stack_0_block0_MB_dw_swish/Sigmoid"], "attr": {"T": {"type": "DT_FLOAT"}}}, {"name": "StatefulPartitionedCall/EfficientNetV1B0/tf.math.reduce_mean/Mean", "op": "Mean", "input": ["StatefulPartitionedCall/EfficientNetV1B0/stack_0_block0_MB_dw_swish/mul", "StatefulPartitionedCall/EfficientNetV1B0/tf.math.reduce_mean/Mean/reduction_indices"], "attr": {"keep_dims": {"b": true}, "Tidx": {"type": "DT_INT32"}, "T": {"type": "DT_FLOAT"}}}, {"name": "StatefulPartitionedCall/EfficientNetV1B0/stack_0_block0_se_1_conv/BiasAdd", "op": "_FusedConv2D", "input": ["StatefulPartitionedCall/EfficientNetV1B0/tf.math.reduce_mean/Mean", "StatefulPartitionedCall/EfficientNetV1B0/stack_0_block0_se_1_conv/Conv2D/ReadVariableOp", "StatefulPartitionedCall/EfficientNetV1B0/stack_0_block0_se_1_conv/BiasAdd/ReadVariableOp"], "device": "/device:CPU:0", "attr": {"data_format": {"s": "TkhXQw=="}, "strides": {"list": {"i": ["1", "1", "1", "1"]}}, "explicit_paddings": {"list": {}}, "use_cudnn_on_gpu": {"b": true}, "dilations": {"list": {"i": ["1", "1", "1", "1"]}}, "fused_ops": {"list": {"s": ["Qmlhc0FkZA=="]}}, "T": {"type": "DT_FLOAT"}, "epsilon": {"f": 0.0}, "num_args": {"i": "1"}, "padding": {"s": "VkFMSUQ="}}}, {"name": "StatefulPartitionedCall/EfficientNetV1B0/activation/Sigmoid", "op": "Sigmoid", "input": ["StatefulPartitionedCall/EfficientNetV1B0/stack_0_block0_se_1_conv/BiasAdd"], "attr": {"T": {"type": "DT_FLOAT"}}}, {"name": "StatefulPartitionedCall/EfficientNetV1B0/activation/mul", "op": "Mul", "input": ["StatefulPartitionedCall/EfficientNetV1B0/stack_0_block0_se_1_conv/BiasAdd", "StatefulPartitionedCall/EfficientNetV1B0/activation/Sigmoid"], "attr": {"T": {"type": "DT_FLOAT"}}}, {"name": "StatefulPartitionedCall/EfficientNetV1B0/stack_0_block0_se_2_conv/BiasAdd", "op": "_FusedConv2D", "input": ["StatefulPartitionedCall/EfficientNetV1B0/activation/mul", "StatefulPartitionedCall/EfficientNetV1B0/stack_0_block0_se_2_conv/Conv2D/ReadVariableOp", "StatefulPartitionedCall/EfficientNetV1B0/stack_0_block0_se_2_conv/BiasAdd/ReadVariableOp"], "device": "/device:CPU:0", "attr": {"dilations": {"list": {"i": ["1", "1", "1", "1"]}}, "padding": {"s": "VkFMSUQ="}, "T": {"type": "DT_FLOAT"}, "epsilon": {"f": 0.0}, "num_args": {"i": "1"}, "explicit_paddings": {"list": {}}, "data_format": {"s": "TkhXQw=="}, "fused_ops": {"list": {"s": ["Qmlhc0FkZA=="]}}, "use_cudnn_on_gpu": {"b": true}, "strides": {"list": {"i": ["1", "1", "1", "1"]}}}}, {"name": "StatefulPartitionedCall/EfficientNetV1B0/activation_1/Sigmoid", "op": "Sigmoid", "input": ["StatefulPartitionedCall/EfficientNetV1B0/stack_0_block0_se_2_conv/BiasAdd"], "attr": {"T": {"type": "DT_FLOAT"}}}, {"name": "StatefulPartitionedCall/EfficientNetV1B0/multiply/mul", "op": "Mul", "input": ["StatefulPartitionedCall/EfficientNetV1B0/stack_0_block0_MB_dw_swish/mul", "StatefulPartitionedCall/EfficientNetV1B0/activation_1/Sigmoid"], "attr": {"T": {"type": "DT_FLOAT"}}}, {"name": "StatefulPartitionedCall/EfficientNetV1B0/stack_0_block0_MB_pw_bn/FusedBatchNormV3", "op": "_FusedConv2D", "input": ["StatefulPartitionedCall/EfficientNetV1B0/multiply/mul", "StatefulPartitionedCall/EfficientNetV1B0/stack_0_block0_MB_pw_conv/Conv2D_weights", "StatefulPartitionedCall/EfficientNetV1B0/stack_0_block0_MB_pw_conv/Conv2D_bn_offset"], "device": "/device:CPU:0", "attr": {"dilations": {"list": {"i": ["1", "1", "1", "1"]}}, "T": {"type": "DT_FLOAT"}, "fused_ops": {"list": {"s": ["Qmlhc0FkZA=="]}}, "padding": {"s": "VkFMSUQ="}, "num_args": {"i": "1"}, "epsilon": {"f": 0.0}, "strides": {"list": {"i": ["1", "1", "1", "1"]}}, "data_format": {"s": "TkhXQw=="}, "explicit_paddings": {"list": {}}, "use_cudnn_on_gpu": {"b": true}}}, {"name": "StatefulPartitionedCall/EfficientNetV1B0/stack_1_block0_sortcut_bn/FusedBatchNormV3", "op": "_FusedConv2D", "input": ["StatefulPartitionedCall/EfficientNetV1B0/stack_0_block0_MB_pw_bn/FusedBatchNormV3", "StatefulPartitionedCall/EfficientNetV1B0/stack_1_block0_sortcut_conv/Conv2D_weights", "StatefulPartitionedCall/EfficientNetV1B0/stack_1_block0_sortcut_conv/Conv2D_bn_offset"], "device": "/device:CPU:0", "attr": {"data_format": {"s": "TkhXQw=="}, "fused_ops": {"list": {"s": ["Qmlhc0FkZA=="]}}, "padding": {"s": "VkFMSUQ="}, "dilations": {"list": {"i": ["1", "1", "1", "1"]}}, "strides": {"list": {"i": ["1", "1", "1", "1"]}}, "explicit_paddings": {"list": {}}, "num_args": {"i": "1"}, "epsilon": {"f": 0.0}, "T": {"type": "DT_FLOAT"}, "use_cudnn_on_gpu": {"b": true}}}, {"name": "StatefulPartitionedCall/EfficientNetV1B0/stack_1_block0_sortcut_swish/Sigmoid", "op": "Sigmoid", "input": ["StatefulPartitionedCall/EfficientNetV1B0/stack_1_block0_sortcut_bn/FusedBatchNormV3"], "attr": {"T": {"type": "DT_FLOAT"}}}, {"name": "StatefulPartitionedCall/EfficientNetV1B0/stack_1_block0_sortcut_swish/mul", "op": "Mul", "input": ["StatefulPartitionedCall/EfficientNetV1B0/stack_1_block0_sortcut_bn/FusedBatchNormV3", "StatefulPartitionedCall/EfficientNetV1B0/stack_1_block0_sortcut_swish/Sigmoid"], "attr": {"T": {"type": "DT_FLOAT"}}}, {"name": "StatefulPartitionedCall/EfficientNetV1B0/stack_1_block0_MB_dw_/depthwise", "op": "FusedDepthwiseConv2dNative", "input": ["StatefulPartitionedCall/EfficientNetV1B0/stack_1_block0_sortcut_swish/mul", "StatefulPartitionedCall/EfficientNetV1B0/stack_1_block0_MB_dw_/depthwise_weights", "StatefulPartitionedCall/EfficientNetV1B0/stack_1_block0_MB_dw_/depthwise_bn_offset"], "attr": {"fused_ops": {"list": {"s": ["Qmlhc0FkZA=="]}}, "padding": {"s": "U0FNRQ=="}, "dilations": {"list": {"i": ["1", "1", "1", "1"]}}, "num_args": {"i": "1"}, "data_format": {"s": "TkhXQw=="}, "explicit_paddings": {"list": {}}, "strides": {"list": {"i": ["1", "2", "2", "1"]}}, "T": {"type": "DT_FLOAT"}}}, {"name": "StatefulPartitionedCall/EfficientNetV1B0/stack_1_block0_MB_dw_swish/Sigmoid", "op": "Sigmoid", "input": ["StatefulPartitionedCall/EfficientNetV1B0/stack_1_block0_MB_dw_/depthwise"], "attr": {"T": {"type": "DT_FLOAT"}}}, {"name": "StatefulPartitionedCall/EfficientNetV1B0/stack_1_block0_MB_dw_swish/mul", "op": "Mul", "input": ["StatefulPartitionedCall/EfficientNetV1B0/stack_1_block0_MB_dw_/depthwise", "StatefulPartitionedCall/EfficientNetV1B0/stack_1_block0_MB_dw_swish/Sigmoid"], "attr": {"T": {"type": "DT_FLOAT"}}}, {"name": "StatefulPartitionedCall/EfficientNetV1B0/tf.math.reduce_mean_1/Mean", "op": "Mean", "input": ["StatefulPartitionedCall/EfficientNetV1B0/stack_1_block0_MB_dw_swish/mul", "StatefulPartitionedCall/EfficientNetV1B0/tf.math.reduce_mean_1/Mean/reduction_indices"], "attr": {"Tidx": {"type": "DT_INT32"}, "keep_dims": {"b": true}, "T": {"type": "DT_FLOAT"}}}, {"name": "StatefulPartitionedCall/EfficientNetV1B0/stack_1_block0_se_1_conv/BiasAdd", "op": "_FusedConv2D", "input": ["StatefulPartitionedCall/EfficientNetV1B0/tf.math.reduce_mean_1/Mean", "StatefulPartitionedCall/EfficientNetV1B0/stack_1_block0_se_1_conv/Conv2D/ReadVariableOp", "StatefulPartitionedCall/EfficientNetV1B0/stack_1_block0_se_1_conv/BiasAdd/ReadVariableOp"], "device": "/device:CPU:0", "attr": {"dilations": {"list": {"i": ["1", "1", "1", "1"]}}, "T": {"type": "DT_FLOAT"}, "num_args": {"i": "1"}, "strides": {"list": {"i": ["1", "1", "1", "1"]}}, "explicit_paddings": {"list": {}}, "fused_ops": {"list": {"s": ["Qmlhc0FkZA=="]}}, "padding": {"s": "VkFMSUQ="}, "use_cudnn_on_gpu": {"b": true}, "epsilon": {"f": 0.0}, "data_format": {"s": "TkhXQw=="}}}, {"name": "StatefulPartitionedCall/EfficientNetV1B0/activation_2/Sigmoid", "op": "Sigmoid", "input": ["StatefulPartitionedCall/EfficientNetV1B0/stack_1_block0_se_1_conv/BiasAdd"], "attr": {"T": {"type": "DT_FLOAT"}}}, {"name": "StatefulPartitionedCall/EfficientNetV1B0/activation_2/mul", "op": "Mul", "input": ["StatefulPartitionedCall/EfficientNetV1B0/stack_1_block0_se_1_conv/BiasAdd", "StatefulPartitionedCall/EfficientNetV1B0/activation_2/Sigmoid"], "attr": {"T": {"type": "DT_FLOAT"}}}, {"name": "StatefulPartitionedCall/EfficientNetV1B0/stack_1_block0_se_2_conv/BiasAdd", "op": "_FusedConv2D", "input": ["StatefulPartitionedCall/EfficientNetV1B0/activation_2/mul", "StatefulPartitionedCall/EfficientNetV1B0/stack_1_block0_se_2_conv/Conv2D/ReadVariableOp", "StatefulPartitionedCall/EfficientNetV1B0/stack_1_block0_se_2_conv/BiasAdd/ReadVariableOp"], "device": "/device:CPU:0", "attr": {"strides": {"list": {"i": ["1", "1", "1", "1"]}}, "dilations": {"list": {"i": ["1", "1", "1", "1"]}}, "T": {"type": "DT_FLOAT"}, "padding": {"s": "VkFMSUQ="}, "num_args": {"i": "1"}, "epsilon": {"f": 0.0}, "explicit_paddings": {"list": {}}, "data_format": {"s": "TkhXQw=="}, "fused_ops": {"list": {"s": ["Qmlhc0FkZA=="]}}, "use_cudnn_on_gpu": {"b": true}}}, {"name": "StatefulPartitionedCall/EfficientNetV1B0/activation_3/Sigmoid", "op": "Sigmoid", "input": ["StatefulPartitionedCall/EfficientNetV1B0/stack_1_block0_se_2_conv/BiasAdd"], "attr": {"T": {"type": "DT_FLOAT"}}}, {"name": "StatefulPartitionedCall/EfficientNetV1B0/multiply_1/mul", "op": "Mul", "input": ["StatefulPartitionedCall/EfficientNetV1B0/stack_1_block0_MB_dw_swish/mul", "StatefulPartitionedCall/EfficientNetV1B0/activation_3/Sigmoid"], "attr": {"T": {"type": "DT_FLOAT"}}}, {"name": "StatefulPartitionedCall/EfficientNetV1B0/stack_1_block0_MB_pw_bn/FusedBatchNormV3", "op": "_FusedConv2D", "input": ["StatefulPartitionedCall/EfficientNetV1B0/multiply_1/mul", "StatefulPartitionedCall/EfficientNetV1B0/stack_1_block0_MB_pw_conv/Conv2D_weights", "StatefulPartitionedCall/EfficientNetV1B0/stack_1_block0_MB_pw_conv/Conv2D_bn_offset"], "device": "/device:CPU:0", "attr": {"dilations": {"list": {"i": ["1", "1", "1", "1"]}}, "T": {"type": "DT_FLOAT"}, "strides": {"list": {"i": ["1", "1", "1", "1"]}}, "num_args": {"i": "1"}, "explicit_paddings": {"list": {}}, "padding": {"s": "VkFMSUQ="}, "epsilon": {"f": 0.0}, "fused_ops": {"list": {"s": ["Qmlhc0FkZA=="]}}, "use_cudnn_on_gpu": {"b": true}, "data_format": {"s": "TkhXQw=="}}}, {"name": "StatefulPartitionedCall/EfficientNetV1B0/stack_1_block1_sortcut_bn/FusedBatchNormV3", "op": "_FusedConv2D", "input": ["StatefulPartitionedCall/EfficientNetV1B0/stack_1_block0_MB_pw_bn/FusedBatchNormV3", "StatefulPartitionedCall/EfficientNetV1B0/stack_1_block1_sortcut_conv/Conv2D_weights", "StatefulPartitionedCall/EfficientNetV1B0/stack_1_block1_sortcut_conv/Conv2D_bn_offset"], "device": "/device:CPU:0", "attr": {"epsilon": {"f": 0.0}, "fused_ops": {"list": {"s": ["Qmlhc0FkZA=="]}}, "num_args": {"i": "1"}, "explicit_paddings": {"list": {}}, "data_format": {"s": "TkhXQw=="}, "use_cudnn_on_gpu": {"b": true}, "padding": {"s": "VkFMSUQ="}, "T": {"type": "DT_FLOAT"}, "strides": {"list": {"i": ["1", "1", "1", "1"]}}, "dilations": {"list": {"i": ["1", "1", "1", "1"]}}}}, {"name": "StatefulPartitionedCall/EfficientNetV1B0/stack_1_block1_sortcut_swish/Sigmoid", "op": "Sigmoid", "input": ["StatefulPartitionedCall/EfficientNetV1B0/stack_1_block1_sortcut_bn/FusedBatchNormV3"], "attr": {"T": {"type": "DT_FLOAT"}}}, {"name": "StatefulPartitionedCall/EfficientNetV1B0/stack_1_block1_sortcut_swish/mul", "op": "Mul", "input": ["StatefulPartitionedCall/EfficientNetV1B0/stack_1_block1_sortcut_bn/FusedBatchNormV3", "StatefulPartitionedCall/EfficientNetV1B0/stack_1_block1_sortcut_swish/Sigmoid"], "attr": {"T": {"type": "DT_FLOAT"}}}, {"name": "StatefulPartitionedCall/EfficientNetV1B0/stack_1_block1_MB_dw_/depthwise", "op": "FusedDepthwiseConv2dNative", "input": ["StatefulPartitionedCall/EfficientNetV1B0/stack_1_block1_sortcut_swish/mul", "StatefulPartitionedCall/EfficientNetV1B0/stack_1_block1_MB_dw_/depthwise_weights", "StatefulPartitionedCall/EfficientNetV1B0/stack_1_block1_MB_dw_/depthwise_bn_offset"], "attr": {"T": {"type": "DT_FLOAT"}, "strides": {"list": {"i": ["1", "1", "1", "1"]}}, "num_args": {"i": "1"}, "fused_ops": {"list": {"s": ["Qmlhc0FkZA=="]}}, "data_format": {"s": "TkhXQw=="}, "padding": {"s": "U0FNRQ=="}, "dilations": {"list": {"i": ["1", "1", "1", "1"]}}, "explicit_paddings": {"list": {}}}}, {"name": "StatefulPartitionedCall/EfficientNetV1B0/stack_1_block1_MB_dw_swish/Sigmoid", "op": "Sigmoid", "input": ["StatefulPartitionedCall/EfficientNetV1B0/stack_1_block1_MB_dw_/depthwise"], "attr": {"T": {"type": "DT_FLOAT"}}}, {"name": "StatefulPartitionedCall/EfficientNetV1B0/stack_1_block1_MB_dw_swish/mul", "op": "Mul", "input": ["StatefulPartitionedCall/EfficientNetV1B0/stack_1_block1_MB_dw_/depthwise", "StatefulPartitionedCall/EfficientNetV1B0/stack_1_block1_MB_dw_swish/Sigmoid"], "attr": {"T": {"type": "DT_FLOAT"}}}, {"name": "StatefulPartitionedCall/EfficientNetV1B0/tf.math.reduce_mean_2/Mean", "op": "Mean", "input": ["StatefulPartitionedCall/EfficientNetV1B0/stack_1_block1_MB_dw_swish/mul", "StatefulPartitionedCall/EfficientNetV1B0/tf.math.reduce_mean_2/Mean/reduction_indices"], "attr": {"T": {"type": "DT_FLOAT"}, "keep_dims": {"b": true}, "Tidx": {"type": "DT_INT32"}}}, {"name": "StatefulPartitionedCall/EfficientNetV1B0/stack_1_block1_se_1_conv/BiasAdd", "op": "_FusedConv2D", "input": ["StatefulPartitionedCall/EfficientNetV1B0/tf.math.reduce_mean_2/Mean", "StatefulPartitionedCall/EfficientNetV1B0/stack_1_block1_se_1_conv/Conv2D/ReadVariableOp", "StatefulPartitionedCall/EfficientNetV1B0/stack_1_block1_se_1_conv/BiasAdd/ReadVariableOp"], "device": "/device:CPU:0", "attr": {"epsilon": {"f": 0.0}, "padding": {"s": "VkFMSUQ="}, "dilations": {"list": {"i": ["1", "1", "1", "1"]}}, "explicit_paddings": {"list": {}}, "fused_ops": {"list": {"s": ["Qmlhc0FkZA=="]}}, "num_args": {"i": "1"}, "data_format": {"s": "TkhXQw=="}, "strides": {"list": {"i": ["1", "1", "1", "1"]}}, "T": {"type": "DT_FLOAT"}, "use_cudnn_on_gpu": {"b": true}}}, {"name": "StatefulPartitionedCall/EfficientNetV1B0/activation_4/Sigmoid", "op": "Sigmoid", "input": ["StatefulPartitionedCall/EfficientNetV1B0/stack_1_block1_se_1_conv/BiasAdd"], "attr": {"T": {"type": "DT_FLOAT"}}}, {"name": "StatefulPartitionedCall/EfficientNetV1B0/activation_4/mul", "op": "Mul", "input": ["StatefulPartitionedCall/EfficientNetV1B0/stack_1_block1_se_1_conv/BiasAdd", "StatefulPartitionedCall/EfficientNetV1B0/activation_4/Sigmoid"], "attr": {"T": {"type": "DT_FLOAT"}}}, {"name": "StatefulPartitionedCall/EfficientNetV1B0/stack_1_block1_se_2_conv/BiasAdd", "op": "_FusedConv2D", "input": ["StatefulPartitionedCall/EfficientNetV1B0/activation_4/mul", "StatefulPartitionedCall/EfficientNetV1B0/stack_1_block1_se_2_conv/Conv2D/ReadVariableOp", "StatefulPartitionedCall/EfficientNetV1B0/stack_1_block1_se_2_conv/BiasAdd/ReadVariableOp"], "device": "/device:CPU:0", "attr": {"fused_ops": {"list": {"s": ["Qmlhc0FkZA=="]}}, "use_cudnn_on_gpu": {"b": true}, "data_format": {"s": "TkhXQw=="}, "padding": {"s": "VkFMSUQ="}, "dilations": {"list": {"i": ["1", "1", "1", "1"]}}, "explicit_paddings": {"list": {}}, "strides": {"list": {"i": ["1", "1", "1", "1"]}}, "T": {"type": "DT_FLOAT"}, "num_args": {"i": "1"}, "epsilon": {"f": 0.0}}}, {"name": "StatefulPartitionedCall/EfficientNetV1B0/activation_5/Sigmoid", "op": "Sigmoid", "input": ["StatefulPartitionedCall/EfficientNetV1B0/stack_1_block1_se_2_conv/BiasAdd"], "attr": {"T": {"type": "DT_FLOAT"}}}, {"name": "StatefulPartitionedCall/EfficientNetV1B0/multiply_2/mul", "op": "Mul", "input": ["StatefulPartitionedCall/EfficientNetV1B0/stack_1_block1_MB_dw_swish/mul", "StatefulPartitionedCall/EfficientNetV1B0/activation_5/Sigmoid"], "attr": {"T": {"type": "DT_FLOAT"}}}, {"name": "StatefulPartitionedCall/EfficientNetV1B0/stack_1_block1_MB_pw_bn/FusedBatchNormV3", "op": "_FusedConv2D", "input": ["StatefulPartitionedCall/EfficientNetV1B0/multiply_2/mul", "StatefulPartitionedCall/EfficientNetV1B0/stack_1_block1_MB_pw_conv/Conv2D_weights", "StatefulPartitionedCall/EfficientNetV1B0/stack_1_block1_MB_pw_conv/Conv2D_bn_offset"], "device": "/device:CPU:0", "attr": {"use_cudnn_on_gpu": {"b": true}, "padding": {"s": "VkFMSUQ="}, "data_format": {"s": "TkhXQw=="}, "epsilon": {"f": 0.0}, "dilations": {"list": {"i": ["1", "1", "1", "1"]}}, "fused_ops": {"list": {"s": ["Qmlhc0FkZA=="]}}, "T": {"type": "DT_FLOAT"}, "explicit_paddings": {"list": {}}, "num_args": {"i": "1"}, "strides": {"list": {"i": ["1", "1", "1", "1"]}}}}, {"name": "StatefulPartitionedCall/EfficientNetV1B0/add/add", "op": "AddV2", "input": ["StatefulPartitionedCall/EfficientNetV1B0/stack_1_block0_MB_pw_bn/FusedBatchNormV3", "StatefulPartitionedCall/EfficientNetV1B0/stack_1_block1_MB_pw_bn/FusedBatchNormV3"], "attr": {"T": {"type": "DT_FLOAT"}}}, {"name": "StatefulPartitionedCall/EfficientNetV1B0/stack_2_block0_sortcut_bn/FusedBatchNormV3", "op": "_FusedConv2D", "input": ["StatefulPartitionedCall/EfficientNetV1B0/add/add", "StatefulPartitionedCall/EfficientNetV1B0/stack_2_block0_sortcut_conv/Conv2D_weights", "StatefulPartitionedCall/EfficientNetV1B0/stack_2_block0_sortcut_conv/Conv2D_bn_offset"], "device": "/device:CPU:0", "attr": {"num_args": {"i": "1"}, "padding": {"s": "VkFMSUQ="}, "epsilon": {"f": 0.0}, "use_cudnn_on_gpu": {"b": true}, "data_format": {"s": "TkhXQw=="}, "dilations": {"list": {"i": ["1", "1", "1", "1"]}}, "T": {"type": "DT_FLOAT"}, "explicit_paddings": {"list": {}}, "fused_ops": {"list": {"s": ["Qmlhc0FkZA=="]}}, "strides": {"list": {"i": ["1", "1", "1", "1"]}}}}, {"name": "StatefulPartitionedCall/EfficientNetV1B0/stack_2_block0_sortcut_swish/Sigmoid", "op": "Sigmoid", "input": ["StatefulPartitionedCall/EfficientNetV1B0/stack_2_block0_sortcut_bn/FusedBatchNormV3"], "attr": {"T": {"type": "DT_FLOAT"}}}, {"name": "StatefulPartitionedCall/EfficientNetV1B0/stack_2_block0_sortcut_swish/mul", "op": "Mul", "input": ["StatefulPartitionedCall/EfficientNetV1B0/stack_2_block0_sortcut_bn/FusedBatchNormV3", "StatefulPartitionedCall/EfficientNetV1B0/stack_2_block0_sortcut_swish/Sigmoid"], "attr": {"T": {"type": "DT_FLOAT"}}}, {"name": "StatefulPartitionedCall/EfficientNetV1B0/stack_2_block0_MB_dw_/depthwise", "op": "FusedDepthwiseConv2dNative", "input": ["StatefulPartitionedCall/EfficientNetV1B0/stack_2_block0_sortcut_swish/mul", "StatefulPartitionedCall/EfficientNetV1B0/stack_2_block0_MB_dw_/depthwise_weights", "StatefulPartitionedCall/EfficientNetV1B0/stack_2_block0_MB_dw_/depthwise_bn_offset"], "attr": {"strides": {"list": {"i": ["1", "2", "2", "1"]}}, "dilations": {"list": {"i": ["1", "1", "1", "1"]}}, "padding": {"s": "U0FNRQ=="}, "explicit_paddings": {"list": {}}, "fused_ops": {"list": {"s": ["Qmlhc0FkZA=="]}}, "num_args": {"i": "1"}, "T": {"type": "DT_FLOAT"}, "data_format": {"s": "TkhXQw=="}}}, {"name": "StatefulPartitionedCall/EfficientNetV1B0/stack_2_block0_MB_dw_swish/Sigmoid", "op": "Sigmoid", "input": ["StatefulPartitionedCall/EfficientNetV1B0/stack_2_block0_MB_dw_/depthwise"], "attr": {"T": {"type": "DT_FLOAT"}}}, {"name": "StatefulPartitionedCall/EfficientNetV1B0/stack_2_block0_MB_dw_swish/mul", "op": "Mul", "input": ["StatefulPartitionedCall/EfficientNetV1B0/stack_2_block0_MB_dw_/depthwise", "StatefulPartitionedCall/EfficientNetV1B0/stack_2_block0_MB_dw_swish/Sigmoid"], "attr": {"T": {"type": "DT_FLOAT"}}}, {"name": "StatefulPartitionedCall/EfficientNetV1B0/tf.math.reduce_mean_3/Mean", "op": "Mean", "input": ["StatefulPartitionedCall/EfficientNetV1B0/stack_2_block0_MB_dw_swish/mul", "StatefulPartitionedCall/EfficientNetV1B0/tf.math.reduce_mean_3/Mean/reduction_indices"], "attr": {"T": {"type": "DT_FLOAT"}, "keep_dims": {"b": true}, "Tidx": {"type": "DT_INT32"}}}, {"name": "StatefulPartitionedCall/EfficientNetV1B0/stack_2_block0_se_1_conv/BiasAdd", "op": "_FusedConv2D", "input": ["StatefulPartitionedCall/EfficientNetV1B0/tf.math.reduce_mean_3/Mean", "StatefulPartitionedCall/EfficientNetV1B0/stack_2_block0_se_1_conv/Conv2D/ReadVariableOp", "StatefulPartitionedCall/EfficientNetV1B0/stack_2_block0_se_1_conv/BiasAdd/ReadVariableOp"], "device": "/device:CPU:0", "attr": {"padding": {"s": "VkFMSUQ="}, "num_args": {"i": "1"}, "epsilon": {"f": 0.0}, "fused_ops": {"list": {"s": ["Qmlhc0FkZA=="]}}, "use_cudnn_on_gpu": {"b": true}, "T": {"type": "DT_FLOAT"}, "data_format": {"s": "TkhXQw=="}, "strides": {"list": {"i": ["1", "1", "1", "1"]}}, "dilations": {"list": {"i": ["1", "1", "1", "1"]}}, "explicit_paddings": {"list": {}}}}, {"name": "StatefulPartitionedCall/EfficientNetV1B0/activation_6/Sigmoid", "op": "Sigmoid", "input": ["StatefulPartitionedCall/EfficientNetV1B0/stack_2_block0_se_1_conv/BiasAdd"], "attr": {"T": {"type": "DT_FLOAT"}}}, {"name": "StatefulPartitionedCall/EfficientNetV1B0/activation_6/mul", "op": "Mul", "input": ["StatefulPartitionedCall/EfficientNetV1B0/stack_2_block0_se_1_conv/BiasAdd", "StatefulPartitionedCall/EfficientNetV1B0/activation_6/Sigmoid"], "attr": {"T": {"type": "DT_FLOAT"}}}, {"name": "StatefulPartitionedCall/EfficientNetV1B0/stack_2_block0_se_2_conv/BiasAdd", "op": "_FusedConv2D", "input": ["StatefulPartitionedCall/EfficientNetV1B0/activation_6/mul", "StatefulPartitionedCall/EfficientNetV1B0/stack_2_block0_se_2_conv/Conv2D/ReadVariableOp", "StatefulPartitionedCall/EfficientNetV1B0/stack_2_block0_se_2_conv/BiasAdd/ReadVariableOp"], "device": "/device:CPU:0", "attr": {"fused_ops": {"list": {"s": ["Qmlhc0FkZA=="]}}, "num_args": {"i": "1"}, "epsilon": {"f": 0.0}, "T": {"type": "DT_FLOAT"}, "use_cudnn_on_gpu": {"b": true}, "data_format": {"s": "TkhXQw=="}, "strides": {"list": {"i": ["1", "1", "1", "1"]}}, "dilations": {"list": {"i": ["1", "1", "1", "1"]}}, "padding": {"s": "VkFMSUQ="}, "explicit_paddings": {"list": {}}}}, {"name": "StatefulPartitionedCall/EfficientNetV1B0/activation_7/Sigmoid", "op": "Sigmoid", "input": ["StatefulPartitionedCall/EfficientNetV1B0/stack_2_block0_se_2_conv/BiasAdd"], "attr": {"T": {"type": "DT_FLOAT"}}}, {"name": "StatefulPartitionedCall/EfficientNetV1B0/multiply_3/mul", "op": "Mul", "input": ["StatefulPartitionedCall/EfficientNetV1B0/stack_2_block0_MB_dw_swish/mul", "StatefulPartitionedCall/EfficientNetV1B0/activation_7/Sigmoid"], "attr": {"T": {"type": "DT_FLOAT"}}}, {"name": "StatefulPartitionedCall/EfficientNetV1B0/stack_2_block0_MB_pw_bn/FusedBatchNormV3", "op": "_FusedConv2D", "input": ["StatefulPartitionedCall/EfficientNetV1B0/multiply_3/mul", "StatefulPartitionedCall/EfficientNetV1B0/stack_2_block0_MB_pw_conv/Conv2D_weights", "StatefulPartitionedCall/EfficientNetV1B0/stack_2_block0_MB_pw_conv/Conv2D_bn_offset"], "device": "/device:CPU:0", "attr": {"epsilon": {"f": 0.0}, "padding": {"s": "VkFMSUQ="}, "use_cudnn_on_gpu": {"b": true}, "data_format": {"s": "TkhXQw=="}, "T": {"type": "DT_FLOAT"}, "dilations": {"list": {"i": ["1", "1", "1", "1"]}}, "explicit_paddings": {"list": {}}, "fused_ops": {"list": {"s": ["Qmlhc0FkZA=="]}}, "num_args": {"i": "1"}, "strides": {"list": {"i": ["1", "1", "1", "1"]}}}}, {"name": "StatefulPartitionedCall/EfficientNetV1B0/stack_2_block1_sortcut_bn/FusedBatchNormV3", "op": "_FusedConv2D", "input": ["StatefulPartitionedCall/EfficientNetV1B0/stack_2_block0_MB_pw_bn/FusedBatchNormV3", "StatefulPartitionedCall/EfficientNetV1B0/stack_2_block1_sortcut_conv/Conv2D_weights", "StatefulPartitionedCall/EfficientNetV1B0/stack_2_block1_sortcut_conv/Conv2D_bn_offset"], "device": "/device:CPU:0", "attr": {"dilations": {"list": {"i": ["1", "1", "1", "1"]}}, "strides": {"list": {"i": ["1", "1", "1", "1"]}}, "fused_ops": {"list": {"s": ["Qmlhc0FkZA=="]}}, "padding": {"s": "VkFMSUQ="}, "explicit_paddings": {"list": {}}, "num_args": {"i": "1"}, "T": {"type": "DT_FLOAT"}, "epsilon": {"f": 0.0}, "use_cudnn_on_gpu": {"b": true}, "data_format": {"s": "TkhXQw=="}}}, {"name": "StatefulPartitionedCall/EfficientNetV1B0/stack_2_block1_sortcut_swish/Sigmoid", "op": "Sigmoid", "input": ["StatefulPartitionedCall/EfficientNetV1B0/stack_2_block1_sortcut_bn/FusedBatchNormV3"], "attr": {"T": {"type": "DT_FLOAT"}}}, {"name": "StatefulPartitionedCall/EfficientNetV1B0/stack_2_block1_sortcut_swish/mul", "op": "Mul", "input": ["StatefulPartitionedCall/EfficientNetV1B0/stack_2_block1_sortcut_bn/FusedBatchNormV3", "StatefulPartitionedCall/EfficientNetV1B0/stack_2_block1_sortcut_swish/Sigmoid"], "attr": {"T": {"type": "DT_FLOAT"}}}, {"name": "StatefulPartitionedCall/EfficientNetV1B0/stack_2_block1_MB_dw_/depthwise", "op": "FusedDepthwiseConv2dNative", "input": ["StatefulPartitionedCall/EfficientNetV1B0/stack_2_block1_sortcut_swish/mul", "StatefulPartitionedCall/EfficientNetV1B0/stack_2_block1_MB_dw_/depthwise_weights", "StatefulPartitionedCall/EfficientNetV1B0/stack_2_block1_MB_dw_/depthwise_bn_offset"], "attr": {"T": {"type": "DT_FLOAT"}, "dilations": {"list": {"i": ["1", "1", "1", "1"]}}, "explicit_paddings": {"list": {}}, "fused_ops": {"list": {"s": ["Qmlhc0FkZA=="]}}, "num_args": {"i": "1"}, "strides": {"list": {"i": ["1", "1", "1", "1"]}}, "padding": {"s": "U0FNRQ=="}, "data_format": {"s": "TkhXQw=="}}}, {"name": "StatefulPartitionedCall/EfficientNetV1B0/stack_2_block1_MB_dw_swish/Sigmoid", "op": "Sigmoid", "input": ["StatefulPartitionedCall/EfficientNetV1B0/stack_2_block1_MB_dw_/depthwise"], "attr": {"T": {"type": "DT_FLOAT"}}}, {"name": "StatefulPartitionedCall/EfficientNetV1B0/stack_2_block1_MB_dw_swish/mul", "op": "Mul", "input": ["StatefulPartitionedCall/EfficientNetV1B0/stack_2_block1_MB_dw_/depthwise", "StatefulPartitionedCall/EfficientNetV1B0/stack_2_block1_MB_dw_swish/Sigmoid"], "attr": {"T": {"type": "DT_FLOAT"}}}, {"name": "StatefulPartitionedCall/EfficientNetV1B0/tf.math.reduce_mean_4/Mean", "op": "Mean", "input": ["StatefulPartitionedCall/EfficientNetV1B0/stack_2_block1_MB_dw_swish/mul", "StatefulPartitionedCall/EfficientNetV1B0/tf.math.reduce_mean_4/Mean/reduction_indices"], "attr": {"T": {"type": "DT_FLOAT"}, "Tidx": {"type": "DT_INT32"}, "keep_dims": {"b": true}}}, {"name": "StatefulPartitionedCall/EfficientNetV1B0/stack_2_block1_se_1_conv/BiasAdd", "op": "_FusedConv2D", "input": ["StatefulPartitionedCall/EfficientNetV1B0/tf.math.reduce_mean_4/Mean", "StatefulPartitionedCall/EfficientNetV1B0/stack_2_block1_se_1_conv/Conv2D/ReadVariableOp", "StatefulPartitionedCall/EfficientNetV1B0/stack_2_block1_se_1_conv/BiasAdd/ReadVariableOp"], "device": "/device:CPU:0", "attr": {"num_args": {"i": "1"}, "data_format": {"s": "TkhXQw=="}, "use_cudnn_on_gpu": {"b": true}, "dilations": {"list": {"i": ["1", "1", "1", "1"]}}, "epsilon": {"f": 0.0}, "T": {"type": "DT_FLOAT"}, "fused_ops": {"list": {"s": ["Qmlhc0FkZA=="]}}, "padding": {"s": "VkFMSUQ="}, "strides": {"list": {"i": ["1", "1", "1", "1"]}}, "explicit_paddings": {"list": {}}}}, {"name": "StatefulPartitionedCall/EfficientNetV1B0/activation_8/Sigmoid", "op": "Sigmoid", "input": ["StatefulPartitionedCall/EfficientNetV1B0/stack_2_block1_se_1_conv/BiasAdd"], "attr": {"T": {"type": "DT_FLOAT"}}}, {"name": "StatefulPartitionedCall/EfficientNetV1B0/activation_8/mul", "op": "Mul", "input": ["StatefulPartitionedCall/EfficientNetV1B0/stack_2_block1_se_1_conv/BiasAdd", "StatefulPartitionedCall/EfficientNetV1B0/activation_8/Sigmoid"], "attr": {"T": {"type": "DT_FLOAT"}}}, {"name": "StatefulPartitionedCall/EfficientNetV1B0/stack_2_block1_se_2_conv/BiasAdd", "op": "_FusedConv2D", "input": ["StatefulPartitionedCall/EfficientNetV1B0/activation_8/mul", "StatefulPartitionedCall/EfficientNetV1B0/stack_2_block1_se_2_conv/Conv2D/ReadVariableOp", "StatefulPartitionedCall/EfficientNetV1B0/stack_2_block1_se_2_conv/BiasAdd/ReadVariableOp"], "device": "/device:CPU:0", "attr": {"num_args": {"i": "1"}, "padding": {"s": "VkFMSUQ="}, "epsilon": {"f": 0.0}, "fused_ops": {"list": {"s": ["Qmlhc0FkZA=="]}}, "use_cudnn_on_gpu": {"b": true}, "data_format": {"s": "TkhXQw=="}, "T": {"type": "DT_FLOAT"}, "strides": {"list": {"i": ["1", "1", "1", "1"]}}, "dilations": {"list": {"i": ["1", "1", "1", "1"]}}, "explicit_paddings": {"list": {}}}}, {"name": "StatefulPartitionedCall/EfficientNetV1B0/activation_9/Sigmoid", "op": "Sigmoid", "input": ["StatefulPartitionedCall/EfficientNetV1B0/stack_2_block1_se_2_conv/BiasAdd"], "attr": {"T": {"type": "DT_FLOAT"}}}, {"name": "StatefulPartitionedCall/EfficientNetV1B0/multiply_4/mul", "op": "Mul", "input": ["StatefulPartitionedCall/EfficientNetV1B0/stack_2_block1_MB_dw_swish/mul", "StatefulPartitionedCall/EfficientNetV1B0/activation_9/Sigmoid"], "attr": {"T": {"type": "DT_FLOAT"}}}, {"name": "StatefulPartitionedCall/EfficientNetV1B0/stack_2_block1_MB_pw_bn/FusedBatchNormV3", "op": "_FusedConv2D", "input": ["StatefulPartitionedCall/EfficientNetV1B0/multiply_4/mul", "StatefulPartitionedCall/EfficientNetV1B0/stack_2_block1_MB_pw_conv/Conv2D_weights", "StatefulPartitionedCall/EfficientNetV1B0/stack_2_block1_MB_pw_conv/Conv2D_bn_offset"], "device": "/device:CPU:0", "attr": {"T": {"type": "DT_FLOAT"}, "explicit_paddings": {"list": {}}, "num_args": {"i": "1"}, "padding": {"s": "VkFMSUQ="}, "fused_ops": {"list": {"s": ["Qmlhc0FkZA=="]}}, "data_format": {"s": "TkhXQw=="}, "use_cudnn_on_gpu": {"b": true}, "epsilon": {"f": 0.0}, "dilations": {"list": {"i": ["1", "1", "1", "1"]}}, "strides": {"list": {"i": ["1", "1", "1", "1"]}}}}, {"name": "StatefulPartitionedCall/EfficientNetV1B0/add_1/add", "op": "AddV2", "input": ["StatefulPartitionedCall/EfficientNetV1B0/stack_2_block0_MB_pw_bn/FusedBatchNormV3", "StatefulPartitionedCall/EfficientNetV1B0/stack_2_block1_MB_pw_bn/FusedBatchNormV3"], "attr": {"T": {"type": "DT_FLOAT"}}}, {"name": "StatefulPartitionedCall/EfficientNetV1B0/stack_3_block0_sortcut_bn/FusedBatchNormV3", "op": "_FusedConv2D", "input": ["StatefulPartitionedCall/EfficientNetV1B0/add_1/add", "StatefulPartitionedCall/EfficientNetV1B0/stack_3_block0_sortcut_conv/Conv2D_weights", "StatefulPartitionedCall/EfficientNetV1B0/stack_3_block0_sortcut_conv/Conv2D_bn_offset"], "device": "/device:CPU:0", "attr": {"fused_ops": {"list": {"s": ["Qmlhc0FkZA=="]}}, "use_cudnn_on_gpu": {"b": true}, "data_format": {"s": "TkhXQw=="}, "padding": {"s": "VkFMSUQ="}, "dilations": {"list": {"i": ["1", "1", "1", "1"]}}, "explicit_paddings": {"list": {}}, "T": {"type": "DT_FLOAT"}, "num_args": {"i": "1"}, "strides": {"list": {"i": ["1", "1", "1", "1"]}}, "epsilon": {"f": 0.0}}}, {"name": "StatefulPartitionedCall/EfficientNetV1B0/stack_3_block0_sortcut_swish/Sigmoid", "op": "Sigmoid", "input": ["StatefulPartitionedCall/EfficientNetV1B0/stack_3_block0_sortcut_bn/FusedBatchNormV3"], "attr": {"T": {"type": "DT_FLOAT"}}}, {"name": "StatefulPartitionedCall/EfficientNetV1B0/stack_3_block0_sortcut_swish/mul", "op": "Mul", "input": ["StatefulPartitionedCall/EfficientNetV1B0/stack_3_block0_sortcut_bn/FusedBatchNormV3", "StatefulPartitionedCall/EfficientNetV1B0/stack_3_block0_sortcut_swish/Sigmoid"], "attr": {"T": {"type": "DT_FLOAT"}}}, {"name": "StatefulPartitionedCall/EfficientNetV1B0/stack_3_block0_MB_dw_/depthwise", "op": "FusedDepthwiseConv2dNative", "input": ["StatefulPartitionedCall/EfficientNetV1B0/stack_3_block0_sortcut_swish/mul", "StatefulPartitionedCall/EfficientNetV1B0/stack_3_block0_MB_dw_/depthwise_weights", "StatefulPartitionedCall/EfficientNetV1B0/stack_3_block0_MB_dw_/depthwise_bn_offset"], "attr": {"fused_ops": {"list": {"s": ["Qmlhc0FkZA=="]}}, "data_format": {"s": "TkhXQw=="}, "dilations": {"list": {"i": ["1", "1", "1", "1"]}}, "strides": {"list": {"i": ["1", "2", "2", "1"]}}, "explicit_paddings": {"list": {}}, "T": {"type": "DT_FLOAT"}, "num_args": {"i": "1"}, "padding": {"s": "U0FNRQ=="}}}, {"name": "StatefulPartitionedCall/EfficientNetV1B0/stack_3_block0_MB_dw_swish/Sigmoid", "op": "Sigmoid", "input": ["StatefulPartitionedCall/EfficientNetV1B0/stack_3_block0_MB_dw_/depthwise"], "attr": {"T": {"type": "DT_FLOAT"}}}, {"name": "StatefulPartitionedCall/EfficientNetV1B0/stack_3_block0_MB_dw_swish/mul", "op": "Mul", "input": ["StatefulPartitionedCall/EfficientNetV1B0/stack_3_block0_MB_dw_/depthwise", "StatefulPartitionedCall/EfficientNetV1B0/stack_3_block0_MB_dw_swish/Sigmoid"], "attr": {"T": {"type": "DT_FLOAT"}}}, {"name": "StatefulPartitionedCall/EfficientNetV1B0/tf.math.reduce_mean_5/Mean", "op": "Mean", "input": ["StatefulPartitionedCall/EfficientNetV1B0/stack_3_block0_MB_dw_swish/mul", "StatefulPartitionedCall/EfficientNetV1B0/tf.math.reduce_mean_5/Mean/reduction_indices"], "attr": {"Tidx": {"type": "DT_INT32"}, "keep_dims": {"b": true}, "T": {"type": "DT_FLOAT"}}}, {"name": "StatefulPartitionedCall/EfficientNetV1B0/stack_3_block0_se_1_conv/BiasAdd", "op": "_FusedConv2D", "input": ["StatefulPartitionedCall/EfficientNetV1B0/tf.math.reduce_mean_5/Mean", "StatefulPartitionedCall/EfficientNetV1B0/stack_3_block0_se_1_conv/Conv2D/ReadVariableOp", "StatefulPartitionedCall/EfficientNetV1B0/stack_3_block0_se_1_conv/BiasAdd/ReadVariableOp"], "device": "/device:CPU:0", "attr": {"epsilon": {"f": 0.0}, "use_cudnn_on_gpu": {"b": true}, "dilations": {"list": {"i": ["1", "1", "1", "1"]}}, "T": {"type": "DT_FLOAT"}, "explicit_paddings": {"list": {}}, "fused_ops": {"list": {"s": ["Qmlhc0FkZA=="]}}, "strides": {"list": {"i": ["1", "1", "1", "1"]}}, "num_args": {"i": "1"}, "data_format": {"s": "TkhXQw=="}, "padding": {"s": "VkFMSUQ="}}}, {"name": "StatefulPartitionedCall/EfficientNetV1B0/activation_10/Sigmoid", "op": "Sigmoid", "input": ["StatefulPartitionedCall/EfficientNetV1B0/stack_3_block0_se_1_conv/BiasAdd"], "attr": {"T": {"type": "DT_FLOAT"}}}, {"name": "StatefulPartitionedCall/EfficientNetV1B0/activation_10/mul", "op": "Mul", "input": ["StatefulPartitionedCall/EfficientNetV1B0/stack_3_block0_se_1_conv/BiasAdd", "StatefulPartitionedCall/EfficientNetV1B0/activation_10/Sigmoid"], "attr": {"T": {"type": "DT_FLOAT"}}}, {"name": "StatefulPartitionedCall/EfficientNetV1B0/stack_3_block0_se_2_conv/BiasAdd", "op": "_FusedConv2D", "input": ["StatefulPartitionedCall/EfficientNetV1B0/activation_10/mul", "StatefulPartitionedCall/EfficientNetV1B0/stack_3_block0_se_2_conv/Conv2D/ReadVariableOp", "StatefulPartitionedCall/EfficientNetV1B0/stack_3_block0_se_2_conv/BiasAdd/ReadVariableOp"], "device": "/device:CPU:0", "attr": {"fused_ops": {"list": {"s": ["Qmlhc0FkZA=="]}}, "num_args": {"i": "1"}, "T": {"type": "DT_FLOAT"}, "explicit_paddings": {"list": {}}, "strides": {"list": {"i": ["1", "1", "1", "1"]}}, "data_format": {"s": "TkhXQw=="}, "padding": {"s": "VkFMSUQ="}, "use_cudnn_on_gpu": {"b": true}, "epsilon": {"f": 0.0}, "dilations": {"list": {"i": ["1", "1", "1", "1"]}}}}, {"name": "StatefulPartitionedCall/EfficientNetV1B0/activation_11/Sigmoid", "op": "Sigmoid", "input": ["StatefulPartitionedCall/EfficientNetV1B0/stack_3_block0_se_2_conv/BiasAdd"], "attr": {"T": {"type": "DT_FLOAT"}}}, {"name": "StatefulPartitionedCall/EfficientNetV1B0/multiply_5/mul", "op": "Mul", "input": ["StatefulPartitionedCall/EfficientNetV1B0/stack_3_block0_MB_dw_swish/mul", "StatefulPartitionedCall/EfficientNetV1B0/activation_11/Sigmoid"], "attr": {"T": {"type": "DT_FLOAT"}}}, {"name": "StatefulPartitionedCall/EfficientNetV1B0/stack_3_block0_MB_pw_bn/FusedBatchNormV3", "op": "_FusedConv2D", "input": ["StatefulPartitionedCall/EfficientNetV1B0/multiply_5/mul", "StatefulPartitionedCall/EfficientNetV1B0/stack_3_block0_MB_pw_conv/Conv2D_weights", "StatefulPartitionedCall/EfficientNetV1B0/stack_3_block0_MB_pw_conv/Conv2D_bn_offset"], "device": "/device:CPU:0", "attr": {"num_args": {"i": "1"}, "data_format": {"s": "TkhXQw=="}, "epsilon": {"f": 0.0}, "use_cudnn_on_gpu": {"b": true}, "dilations": {"list": {"i": ["1", "1", "1", "1"]}}, "strides": {"list": {"i": ["1", "1", "1", "1"]}}, "explicit_paddings": {"list": {}}, "padding": {"s": "VkFMSUQ="}, "T": {"type": "DT_FLOAT"}, "fused_ops": {"list": {"s": ["Qmlhc0FkZA=="]}}}}, {"name": "StatefulPartitionedCall/EfficientNetV1B0/stack_3_block1_sortcut_bn/FusedBatchNormV3", "op": "_FusedConv2D", "input": ["StatefulPartitionedCall/EfficientNetV1B0/stack_3_block0_MB_pw_bn/FusedBatchNormV3", "StatefulPartitionedCall/EfficientNetV1B0/stack_3_block1_sortcut_conv/Conv2D_weights", "StatefulPartitionedCall/EfficientNetV1B0/stack_3_block1_sortcut_conv/Conv2D_bn_offset"], "device": "/device:CPU:0", "attr": {"data_format": {"s": "TkhXQw=="}, "use_cudnn_on_gpu": {"b": true}, "T": {"type": "DT_FLOAT"}, "epsilon": {"f": 0.0}, "dilations": {"list": {"i": ["1", "1", "1", "1"]}}, "strides": {"list": {"i": ["1", "1", "1", "1"]}}, "padding": {"s": "VkFMSUQ="}, "explicit_paddings": {"list": {}}, "fused_ops": {"list": {"s": ["Qmlhc0FkZA=="]}}, "num_args": {"i": "1"}}}, {"name": "StatefulPartitionedCall/EfficientNetV1B0/stack_3_block1_sortcut_swish/Sigmoid", "op": "Sigmoid", "input": ["StatefulPartitionedCall/EfficientNetV1B0/stack_3_block1_sortcut_bn/FusedBatchNormV3"], "attr": {"T": {"type": "DT_FLOAT"}}}, {"name": "StatefulPartitionedCall/EfficientNetV1B0/stack_3_block1_sortcut_swish/mul", "op": "Mul", "input": ["StatefulPartitionedCall/EfficientNetV1B0/stack_3_block1_sortcut_bn/FusedBatchNormV3", "StatefulPartitionedCall/EfficientNetV1B0/stack_3_block1_sortcut_swish/Sigmoid"], "attr": {"T": {"type": "DT_FLOAT"}}}, {"name": "StatefulPartitionedCall/EfficientNetV1B0/stack_3_block1_MB_dw_/depthwise", "op": "FusedDepthwiseConv2dNative", "input": ["StatefulPartitionedCall/EfficientNetV1B0/stack_3_block1_sortcut_swish/mul", "StatefulPartitionedCall/EfficientNetV1B0/stack_3_block1_MB_dw_/depthwise_weights", "StatefulPartitionedCall/EfficientNetV1B0/stack_3_block1_MB_dw_/depthwise_bn_offset"], "attr": {"data_format": {"s": "TkhXQw=="}, "dilations": {"list": {"i": ["1", "1", "1", "1"]}}, "strides": {"list": {"i": ["1", "1", "1", "1"]}}, "T": {"type": "DT_FLOAT"}, "explicit_paddings": {"list": {}}, "padding": {"s": "U0FNRQ=="}, "num_args": {"i": "1"}, "fused_ops": {"list": {"s": ["Qmlhc0FkZA=="]}}}}, {"name": "StatefulPartitionedCall/EfficientNetV1B0/stack_3_block1_MB_dw_swish/Sigmoid", "op": "Sigmoid", "input": ["StatefulPartitionedCall/EfficientNetV1B0/stack_3_block1_MB_dw_/depthwise"], "attr": {"T": {"type": "DT_FLOAT"}}}, {"name": "StatefulPartitionedCall/EfficientNetV1B0/stack_3_block1_MB_dw_swish/mul", "op": "Mul", "input": ["StatefulPartitionedCall/EfficientNetV1B0/stack_3_block1_MB_dw_/depthwise", "StatefulPartitionedCall/EfficientNetV1B0/stack_3_block1_MB_dw_swish/Sigmoid"], "attr": {"T": {"type": "DT_FLOAT"}}}, {"name": "StatefulPartitionedCall/EfficientNetV1B0/tf.math.reduce_mean_6/Mean", "op": "Mean", "input": ["StatefulPartitionedCall/EfficientNetV1B0/stack_3_block1_MB_dw_swish/mul", "StatefulPartitionedCall/EfficientNetV1B0/tf.math.reduce_mean_6/Mean/reduction_indices"], "attr": {"T": {"type": "DT_FLOAT"}, "keep_dims": {"b": true}, "Tidx": {"type": "DT_INT32"}}}, {"name": "StatefulPartitionedCall/EfficientNetV1B0/stack_3_block1_se_1_conv/BiasAdd", "op": "_FusedConv2D", "input": ["StatefulPartitionedCall/EfficientNetV1B0/tf.math.reduce_mean_6/Mean", "StatefulPartitionedCall/EfficientNetV1B0/stack_3_block1_se_1_conv/Conv2D/ReadVariableOp", "StatefulPartitionedCall/EfficientNetV1B0/stack_3_block1_se_1_conv/BiasAdd/ReadVariableOp"], "device": "/device:CPU:0", "attr": {"epsilon": {"f": 0.0}, "T": {"type": "DT_FLOAT"}, "use_cudnn_on_gpu": {"b": true}, "data_format": {"s": "TkhXQw=="}, "dilations": {"list": {"i": ["1", "1", "1", "1"]}}, "strides": {"list": {"i": ["1", "1", "1", "1"]}}, "fused_ops": {"list": {"s": ["Qmlhc0FkZA=="]}}, "padding": {"s": "VkFMSUQ="}, "num_args": {"i": "1"}, "explicit_paddings": {"list": {}}}}, {"name": "StatefulPartitionedCall/EfficientNetV1B0/activation_12/Sigmoid", "op": "Sigmoid", "input": ["StatefulPartitionedCall/EfficientNetV1B0/stack_3_block1_se_1_conv/BiasAdd"], "attr": {"T": {"type": "DT_FLOAT"}}}, {"name": "StatefulPartitionedCall/EfficientNetV1B0/activation_12/mul", "op": "Mul", "input": ["StatefulPartitionedCall/EfficientNetV1B0/stack_3_block1_se_1_conv/BiasAdd", "StatefulPartitionedCall/EfficientNetV1B0/activation_12/Sigmoid"], "attr": {"T": {"type": "DT_FLOAT"}}}, {"name": "StatefulPartitionedCall/EfficientNetV1B0/stack_3_block1_se_2_conv/BiasAdd", "op": "_FusedConv2D", "input": ["StatefulPartitionedCall/EfficientNetV1B0/activation_12/mul", "StatefulPartitionedCall/EfficientNetV1B0/stack_3_block1_se_2_conv/Conv2D/ReadVariableOp", "StatefulPartitionedCall/EfficientNetV1B0/stack_3_block1_se_2_conv/BiasAdd/ReadVariableOp"], "device": "/device:CPU:0", "attr": {"strides": {"list": {"i": ["1", "1", "1", "1"]}}, "epsilon": {"f": 0.0}, "explicit_paddings": {"list": {}}, "padding": {"s": "VkFMSUQ="}, "use_cudnn_on_gpu": {"b": true}, "data_format": {"s": "TkhXQw=="}, "dilations": {"list": {"i": ["1", "1", "1", "1"]}}, "num_args": {"i": "1"}, "fused_ops": {"list": {"s": ["Qmlhc0FkZA=="]}}, "T": {"type": "DT_FLOAT"}}}, {"name": "StatefulPartitionedCall/EfficientNetV1B0/activation_13/Sigmoid", "op": "Sigmoid", "input": ["StatefulPartitionedCall/EfficientNetV1B0/stack_3_block1_se_2_conv/BiasAdd"], "attr": {"T": {"type": "DT_FLOAT"}}}, {"name": "StatefulPartitionedCall/EfficientNetV1B0/multiply_6/mul", "op": "Mul", "input": ["StatefulPartitionedCall/EfficientNetV1B0/stack_3_block1_MB_dw_swish/mul", "StatefulPartitionedCall/EfficientNetV1B0/activation_13/Sigmoid"], "attr": {"T": {"type": "DT_FLOAT"}}}, {"name": "StatefulPartitionedCall/EfficientNetV1B0/stack_3_block1_MB_pw_bn/FusedBatchNormV3", "op": "_FusedConv2D", "input": ["StatefulPartitionedCall/EfficientNetV1B0/multiply_6/mul", "StatefulPartitionedCall/EfficientNetV1B0/stack_3_block1_MB_pw_conv/Conv2D_weights", "StatefulPartitionedCall/EfficientNetV1B0/stack_3_block1_MB_pw_conv/Conv2D_bn_offset"], "device": "/device:CPU:0", "attr": {"epsilon": {"f": 0.0}, "fused_ops": {"list": {"s": ["Qmlhc0FkZA=="]}}, "padding": {"s": "VkFMSUQ="}, "explicit_paddings": {"list": {}}, "data_format": {"s": "TkhXQw=="}, "dilations": {"list": {"i": ["1", "1", "1", "1"]}}, "use_cudnn_on_gpu": {"b": true}, "num_args": {"i": "1"}, "strides": {"list": {"i": ["1", "1", "1", "1"]}}, "T": {"type": "DT_FLOAT"}}}, {"name": "StatefulPartitionedCall/EfficientNetV1B0/add_2/add", "op": "AddV2", "input": ["StatefulPartitionedCall/EfficientNetV1B0/stack_3_block0_MB_pw_bn/FusedBatchNormV3", "StatefulPartitionedCall/EfficientNetV1B0/stack_3_block1_MB_pw_bn/FusedBatchNormV3"], "attr": {"T": {"type": "DT_FLOAT"}}}, {"name": "StatefulPartitionedCall/EfficientNetV1B0/stack_3_block2_sortcut_bn/FusedBatchNormV3", "op": "_FusedConv2D", "input": ["StatefulPartitionedCall/EfficientNetV1B0/add_2/add", "StatefulPartitionedCall/EfficientNetV1B0/stack_3_block2_sortcut_conv/Conv2D_weights", "StatefulPartitionedCall/EfficientNetV1B0/stack_3_block2_sortcut_conv/Conv2D_bn_offset"], "device": "/device:CPU:0", "attr": {"epsilon": {"f": 0.0}, "padding": {"s": "VkFMSUQ="}, "strides": {"list": {"i": ["1", "1", "1", "1"]}}, "explicit_paddings": {"list": {}}, "data_format": {"s": "TkhXQw=="}, "fused_ops": {"list": {"s": ["Qmlhc0FkZA=="]}}, "dilations": {"list": {"i": ["1", "1", "1", "1"]}}, "use_cudnn_on_gpu": {"b": true}, "T": {"type": "DT_FLOAT"}, "num_args": {"i": "1"}}}, {"name": "StatefulPartitionedCall/EfficientNetV1B0/stack_3_block2_sortcut_swish/Sigmoid", "op": "Sigmoid", "input": ["StatefulPartitionedCall/EfficientNetV1B0/stack_3_block2_sortcut_bn/FusedBatchNormV3"], "attr": {"T": {"type": "DT_FLOAT"}}}, {"name": "StatefulPartitionedCall/EfficientNetV1B0/stack_3_block2_sortcut_swish/mul", "op": "Mul", "input": ["StatefulPartitionedCall/EfficientNetV1B0/stack_3_block2_sortcut_bn/FusedBatchNormV3", "StatefulPartitionedCall/EfficientNetV1B0/stack_3_block2_sortcut_swish/Sigmoid"], "attr": {"T": {"type": "DT_FLOAT"}}}, {"name": "StatefulPartitionedCall/EfficientNetV1B0/stack_3_block2_MB_dw_/depthwise", "op": "FusedDepthwiseConv2dNative", "input": ["StatefulPartitionedCall/EfficientNetV1B0/stack_3_block2_sortcut_swish/mul", "StatefulPartitionedCall/EfficientNetV1B0/stack_3_block2_MB_dw_/depthwise_weights", "StatefulPartitionedCall/EfficientNetV1B0/stack_3_block2_MB_dw_/depthwise_bn_offset"], "attr": {"data_format": {"s": "TkhXQw=="}, "dilations": {"list": {"i": ["1", "1", "1", "1"]}}, "fused_ops": {"list": {"s": ["Qmlhc0FkZA=="]}}, "num_args": {"i": "1"}, "T": {"type": "DT_FLOAT"}, "explicit_paddings": {"list": {}}, "strides": {"list": {"i": ["1", "1", "1", "1"]}}, "padding": {"s": "U0FNRQ=="}}}, {"name": "StatefulPartitionedCall/EfficientNetV1B0/stack_3_block2_MB_dw_swish/Sigmoid", "op": "Sigmoid", "input": ["StatefulPartitionedCall/EfficientNetV1B0/stack_3_block2_MB_dw_/depthwise"], "attr": {"T": {"type": "DT_FLOAT"}}}, {"name": "StatefulPartitionedCall/EfficientNetV1B0/stack_3_block2_MB_dw_swish/mul", "op": "Mul", "input": ["StatefulPartitionedCall/EfficientNetV1B0/stack_3_block2_MB_dw_/depthwise", "StatefulPartitionedCall/EfficientNetV1B0/stack_3_block2_MB_dw_swish/Sigmoid"], "attr": {"T": {"type": "DT_FLOAT"}}}, {"name": "StatefulPartitionedCall/EfficientNetV1B0/tf.math.reduce_mean_7/Mean", "op": "Mean", "input": ["StatefulPartitionedCall/EfficientNetV1B0/stack_3_block2_MB_dw_swish/mul", "StatefulPartitionedCall/EfficientNetV1B0/tf.math.reduce_mean_7/Mean/reduction_indices"], "attr": {"Tidx": {"type": "DT_INT32"}, "T": {"type": "DT_FLOAT"}, "keep_dims": {"b": true}}}, {"name": "StatefulPartitionedCall/EfficientNetV1B0/stack_3_block2_se_1_conv/BiasAdd", "op": "_FusedConv2D", "input": ["StatefulPartitionedCall/EfficientNetV1B0/tf.math.reduce_mean_7/Mean", "StatefulPartitionedCall/EfficientNetV1B0/stack_3_block2_se_1_conv/Conv2D/ReadVariableOp", "StatefulPartitionedCall/EfficientNetV1B0/stack_3_block2_se_1_conv/BiasAdd/ReadVariableOp"], "device": "/device:CPU:0", "attr": {"strides": {"list": {"i": ["1", "1", "1", "1"]}}, "explicit_paddings": {"list": {}}, "padding": {"s": "VkFMSUQ="}, "epsilon": {"f": 0.0}, "use_cudnn_on_gpu": {"b": true}, "data_format": {"s": "TkhXQw=="}, "dilations": {"list": {"i": ["1", "1", "1", "1"]}}, "fused_ops": {"list": {"s": ["Qmlhc0FkZA=="]}}, "num_args": {"i": "1"}, "T": {"type": "DT_FLOAT"}}}, {"name": "StatefulPartitionedCall/EfficientNetV1B0/activation_14/Sigmoid", "op": "Sigmoid", "input": ["StatefulPartitionedCall/EfficientNetV1B0/stack_3_block2_se_1_conv/BiasAdd"], "attr": {"T": {"type": "DT_FLOAT"}}}, {"name": "StatefulPartitionedCall/EfficientNetV1B0/activation_14/mul", "op": "Mul", "input": ["StatefulPartitionedCall/EfficientNetV1B0/stack_3_block2_se_1_conv/BiasAdd", "StatefulPartitionedCall/EfficientNetV1B0/activation_14/Sigmoid"], "attr": {"T": {"type": "DT_FLOAT"}}}, {"name": "StatefulPartitionedCall/EfficientNetV1B0/stack_3_block2_se_2_conv/BiasAdd", "op": "_FusedConv2D", "input": ["StatefulPartitionedCall/EfficientNetV1B0/activation_14/mul", "StatefulPartitionedCall/EfficientNetV1B0/stack_3_block2_se_2_conv/Conv2D/ReadVariableOp", "StatefulPartitionedCall/EfficientNetV1B0/stack_3_block2_se_2_conv/BiasAdd/ReadVariableOp"], "device": "/device:CPU:0", "attr": {"fused_ops": {"list": {"s": ["Qmlhc0FkZA=="]}}, "T": {"type": "DT_FLOAT"}, "use_cudnn_on_gpu": {"b": true}, "data_format": {"s": "TkhXQw=="}, "dilations": {"list": {"i": ["1", "1", "1", "1"]}}, "num_args": {"i": "1"}, "padding": {"s": "VkFMSUQ="}, "strides": {"list": {"i": ["1", "1", "1", "1"]}}, "explicit_paddings": {"list": {}}, "epsilon": {"f": 0.0}}}, {"name": "StatefulPartitionedCall/EfficientNetV1B0/activation_15/Sigmoid", "op": "Sigmoid", "input": ["StatefulPartitionedCall/EfficientNetV1B0/stack_3_block2_se_2_conv/BiasAdd"], "attr": {"T": {"type": "DT_FLOAT"}}}, {"name": "StatefulPartitionedCall/EfficientNetV1B0/multiply_7/mul", "op": "Mul", "input": ["StatefulPartitionedCall/EfficientNetV1B0/stack_3_block2_MB_dw_swish/mul", "StatefulPartitionedCall/EfficientNetV1B0/activation_15/Sigmoid"], "attr": {"T": {"type": "DT_FLOAT"}}}, {"name": "StatefulPartitionedCall/EfficientNetV1B0/stack_3_block2_MB_pw_bn/FusedBatchNormV3", "op": "_FusedConv2D", "input": ["StatefulPartitionedCall/EfficientNetV1B0/multiply_7/mul", "StatefulPartitionedCall/EfficientNetV1B0/stack_3_block2_MB_pw_conv/Conv2D_weights", "StatefulPartitionedCall/EfficientNetV1B0/stack_3_block2_MB_pw_conv/Conv2D_bn_offset"], "device": "/device:CPU:0", "attr": {"explicit_paddings": {"list": {}}, "T": {"type": "DT_FLOAT"}, "data_format": {"s": "TkhXQw=="}, "dilations": {"list": {"i": ["1", "1", "1", "1"]}}, "fused_ops": {"list": {"s": ["Qmlhc0FkZA=="]}}, "use_cudnn_on_gpu": {"b": true}, "padding": {"s": "VkFMSUQ="}, "strides": {"list": {"i": ["1", "1", "1", "1"]}}, "num_args": {"i": "1"}, "epsilon": {"f": 0.0}}}, {"name": "StatefulPartitionedCall/EfficientNetV1B0/add_3/add", "op": "AddV2", "input": ["StatefulPartitionedCall/EfficientNetV1B0/add_2/add", "StatefulPartitionedCall/EfficientNetV1B0/stack_3_block2_MB_pw_bn/FusedBatchNormV3"], "attr": {"T": {"type": "DT_FLOAT"}}}, {"name": "StatefulPartitionedCall/EfficientNetV1B0/stack_4_block0_sortcut_bn/FusedBatchNormV3", "op": "_FusedConv2D", "input": ["StatefulPartitionedCall/EfficientNetV1B0/add_3/add", "StatefulPartitionedCall/EfficientNetV1B0/stack_4_block0_sortcut_conv/Conv2D_weights", "StatefulPartitionedCall/EfficientNetV1B0/stack_4_block0_sortcut_conv/Conv2D_bn_offset"], "device": "/device:CPU:0", "attr": {"dilations": {"list": {"i": ["1", "1", "1", "1"]}}, "fused_ops": {"list": {"s": ["Qmlhc0FkZA=="]}}, "explicit_paddings": {"list": {}}, "num_args": {"i": "1"}, "strides": {"list": {"i": ["1", "1", "1", "1"]}}, "padding": {"s": "VkFMSUQ="}, "epsilon": {"f": 0.0}, "use_cudnn_on_gpu": {"b": true}, "data_format": {"s": "TkhXQw=="}, "T": {"type": "DT_FLOAT"}}}, {"name": "StatefulPartitionedCall/EfficientNetV1B0/stack_4_block0_sortcut_swish/Sigmoid", "op": "Sigmoid", "input": ["StatefulPartitionedCall/EfficientNetV1B0/stack_4_block0_sortcut_bn/FusedBatchNormV3"], "attr": {"T": {"type": "DT_FLOAT"}}}, {"name": "StatefulPartitionedCall/EfficientNetV1B0/stack_4_block0_sortcut_swish/mul", "op": "Mul", "input": ["StatefulPartitionedCall/EfficientNetV1B0/stack_4_block0_sortcut_bn/FusedBatchNormV3", "StatefulPartitionedCall/EfficientNetV1B0/stack_4_block0_sortcut_swish/Sigmoid"], "attr": {"T": {"type": "DT_FLOAT"}}}, {"name": "StatefulPartitionedCall/EfficientNetV1B0/stack_4_block0_MB_dw_/depthwise", "op": "FusedDepthwiseConv2dNative", "input": ["StatefulPartitionedCall/EfficientNetV1B0/stack_4_block0_sortcut_swish/mul", "StatefulPartitionedCall/EfficientNetV1B0/stack_4_block0_MB_dw_/depthwise_weights", "StatefulPartitionedCall/EfficientNetV1B0/stack_4_block0_MB_dw_/depthwise_bn_offset"], "attr": {"strides": {"list": {"i": ["1", "1", "1", "1"]}}, "explicit_paddings": {"list": {}}, "padding": {"s": "U0FNRQ=="}, "fused_ops": {"list": {"s": ["Qmlhc0FkZA=="]}}, "num_args": {"i": "1"}, "data_format": {"s": "TkhXQw=="}, "dilations": {"list": {"i": ["1", "1", "1", "1"]}}, "T": {"type": "DT_FLOAT"}}}, {"name": "StatefulPartitionedCall/EfficientNetV1B0/stack_4_block0_MB_dw_swish/Sigmoid", "op": "Sigmoid", "input": ["StatefulPartitionedCall/EfficientNetV1B0/stack_4_block0_MB_dw_/depthwise"], "attr": {"T": {"type": "DT_FLOAT"}}}, {"name": "StatefulPartitionedCall/EfficientNetV1B0/stack_4_block0_MB_dw_swish/mul", "op": "Mul", "input": ["StatefulPartitionedCall/EfficientNetV1B0/stack_4_block0_MB_dw_/depthwise", "StatefulPartitionedCall/EfficientNetV1B0/stack_4_block0_MB_dw_swish/Sigmoid"], "attr": {"T": {"type": "DT_FLOAT"}}}, {"name": "StatefulPartitionedCall/EfficientNetV1B0/tf.math.reduce_mean_8/Mean", "op": "Mean", "input": ["StatefulPartitionedCall/EfficientNetV1B0/stack_4_block0_MB_dw_swish/mul", "StatefulPartitionedCall/EfficientNetV1B0/tf.math.reduce_mean_8/Mean/reduction_indices"], "attr": {"Tidx": {"type": "DT_INT32"}, "T": {"type": "DT_FLOAT"}, "keep_dims": {"b": true}}}, {"name": "StatefulPartitionedCall/EfficientNetV1B0/stack_4_block0_se_1_conv/BiasAdd", "op": "_FusedConv2D", "input": ["StatefulPartitionedCall/EfficientNetV1B0/tf.math.reduce_mean_8/Mean", "StatefulPartitionedCall/EfficientNetV1B0/stack_4_block0_se_1_conv/Conv2D/ReadVariableOp", "StatefulPartitionedCall/EfficientNetV1B0/stack_4_block0_se_1_conv/BiasAdd/ReadVariableOp"], "device": "/device:CPU:0", "attr": {"dilations": {"list": {"i": ["1", "1", "1", "1"]}}, "strides": {"list": {"i": ["1", "1", "1", "1"]}}, "explicit_paddings": {"list": {}}, "num_args": {"i": "1"}, "padding": {"s": "VkFMSUQ="}, "fused_ops": {"list": {"s": ["Qmlhc0FkZA=="]}}, "epsilon": {"f": 0.0}, "use_cudnn_on_gpu": {"b": true}, "data_format": {"s": "TkhXQw=="}, "T": {"type": "DT_FLOAT"}}}, {"name": "StatefulPartitionedCall/EfficientNetV1B0/activation_16/Sigmoid", "op": "Sigmoid", "input": ["StatefulPartitionedCall/EfficientNetV1B0/stack_4_block0_se_1_conv/BiasAdd"], "attr": {"T": {"type": "DT_FLOAT"}}}, {"name": "StatefulPartitionedCall/EfficientNetV1B0/activation_16/mul", "op": "Mul", "input": ["StatefulPartitionedCall/EfficientNetV1B0/stack_4_block0_se_1_conv/BiasAdd", "StatefulPartitionedCall/EfficientNetV1B0/activation_16/Sigmoid"], "attr": {"T": {"type": "DT_FLOAT"}}}, {"name": "StatefulPartitionedCall/EfficientNetV1B0/stack_4_block0_se_2_conv/BiasAdd", "op": "_FusedConv2D", "input": ["StatefulPartitionedCall/EfficientNetV1B0/activation_16/mul", "StatefulPartitionedCall/EfficientNetV1B0/stack_4_block0_se_2_conv/Conv2D/ReadVariableOp", "StatefulPartitionedCall/EfficientNetV1B0/stack_4_block0_se_2_conv/BiasAdd/ReadVariableOp"], "device": "/device:CPU:0", "attr": {"strides": {"list": {"i": ["1", "1", "1", "1"]}}, "padding": {"s": "VkFMSUQ="}, "epsilon": {"f": 0.0}, "use_cudnn_on_gpu": {"b": true}, "data_format": {"s": "TkhXQw=="}, "dilations": {"list": {"i": ["1", "1", "1", "1"]}}, "T": {"type": "DT_FLOAT"}, "fused_ops": {"list": {"s": ["Qmlhc0FkZA=="]}}, "explicit_paddings": {"list": {}}, "num_args": {"i": "1"}}}, {"name": "StatefulPartitionedCall/EfficientNetV1B0/activation_17/Sigmoid", "op": "Sigmoid", "input": ["StatefulPartitionedCall/EfficientNetV1B0/stack_4_block0_se_2_conv/BiasAdd"], "attr": {"T": {"type": "DT_FLOAT"}}}, {"name": "StatefulPartitionedCall/EfficientNetV1B0/multiply_8/mul", "op": "Mul", "input": ["StatefulPartitionedCall/EfficientNetV1B0/stack_4_block0_MB_dw_swish/mul", "StatefulPartitionedCall/EfficientNetV1B0/activation_17/Sigmoid"], "attr": {"T": {"type": "DT_FLOAT"}}}, {"name": "StatefulPartitionedCall/EfficientNetV1B0/stack_4_block0_MB_pw_bn/FusedBatchNormV3", "op": "_FusedConv2D", "input": ["StatefulPartitionedCall/EfficientNetV1B0/multiply_8/mul", "StatefulPartitionedCall/EfficientNetV1B0/stack_4_block0_MB_pw_conv/Conv2D_weights", "StatefulPartitionedCall/EfficientNetV1B0/stack_4_block0_MB_pw_conv/Conv2D_bn_offset"], "device": "/device:CPU:0", "attr": {"explicit_paddings": {"list": {}}, "T": {"type": "DT_FLOAT"}, "fused_ops": {"list": {"s": ["Qmlhc0FkZA=="]}}, "num_args": {"i": "1"}, "epsilon": {"f": 0.0}, "data_format": {"s": "TkhXQw=="}, "strides": {"list": {"i": ["1", "1", "1", "1"]}}, "use_cudnn_on_gpu": {"b": true}, "dilations": {"list": {"i": ["1", "1", "1", "1"]}}, "padding": {"s": "VkFMSUQ="}}}, {"name": "StatefulPartitionedCall/EfficientNetV1B0/stack_4_block1_sortcut_bn/FusedBatchNormV3", "op": "_FusedConv2D", "input": ["StatefulPartitionedCall/EfficientNetV1B0/stack_4_block0_MB_pw_bn/FusedBatchNormV3", "StatefulPartitionedCall/EfficientNetV1B0/stack_4_block1_sortcut_conv/Conv2D_weights", "StatefulPartitionedCall/EfficientNetV1B0/stack_4_block1_sortcut_conv/Conv2D_bn_offset"], "device": "/device:CPU:0", "attr": {"fused_ops": {"list": {"s": ["Qmlhc0FkZA=="]}}, "epsilon": {"f": 0.0}, "data_format": {"s": "TkhXQw=="}, "padding": {"s": "VkFMSUQ="}, "explicit_paddings": {"list": {}}, "dilations": {"list": {"i": ["1", "1", "1", "1"]}}, "use_cudnn_on_gpu": {"b": true}, "num_args": {"i": "1"}, "T": {"type": "DT_FLOAT"}, "strides": {"list": {"i": ["1", "1", "1", "1"]}}}}, {"name": "StatefulPartitionedCall/EfficientNetV1B0/stack_4_block1_sortcut_swish/Sigmoid", "op": "Sigmoid", "input": ["StatefulPartitionedCall/EfficientNetV1B0/stack_4_block1_sortcut_bn/FusedBatchNormV3"], "attr": {"T": {"type": "DT_FLOAT"}}}, {"name": "StatefulPartitionedCall/EfficientNetV1B0/stack_4_block1_sortcut_swish/mul", "op": "Mul", "input": ["StatefulPartitionedCall/EfficientNetV1B0/stack_4_block1_sortcut_bn/FusedBatchNormV3", "StatefulPartitionedCall/EfficientNetV1B0/stack_4_block1_sortcut_swish/Sigmoid"], "attr": {"T": {"type": "DT_FLOAT"}}}, {"name": "StatefulPartitionedCall/EfficientNetV1B0/stack_4_block1_MB_dw_/depthwise", "op": "FusedDepthwiseConv2dNative", "input": ["StatefulPartitionedCall/EfficientNetV1B0/stack_4_block1_sortcut_swish/mul", "StatefulPartitionedCall/EfficientNetV1B0/stack_4_block1_MB_dw_/depthwise_weights", "StatefulPartitionedCall/EfficientNetV1B0/stack_4_block1_MB_dw_/depthwise_bn_offset"], "attr": {"dilations": {"list": {"i": ["1", "1", "1", "1"]}}, "fused_ops": {"list": {"s": ["Qmlhc0FkZA=="]}}, "padding": {"s": "U0FNRQ=="}, "strides": {"list": {"i": ["1", "1", "1", "1"]}}, "explicit_paddings": {"list": {}}, "num_args": {"i": "1"}, "T": {"type": "DT_FLOAT"}, "data_format": {"s": "TkhXQw=="}}}, {"name": "StatefulPartitionedCall/EfficientNetV1B0/stack_4_block1_MB_dw_swish/Sigmoid", "op": "Sigmoid", "input": ["StatefulPartitionedCall/EfficientNetV1B0/stack_4_block1_MB_dw_/depthwise"], "attr": {"T": {"type": "DT_FLOAT"}}}, {"name": "StatefulPartitionedCall/EfficientNetV1B0/stack_4_block1_MB_dw_swish/mul", "op": "Mul", "input": ["StatefulPartitionedCall/EfficientNetV1B0/stack_4_block1_MB_dw_/depthwise", "StatefulPartitionedCall/EfficientNetV1B0/stack_4_block1_MB_dw_swish/Sigmoid"], "attr": {"T": {"type": "DT_FLOAT"}}}, {"name": "StatefulPartitionedCall/EfficientNetV1B0/tf.math.reduce_mean_9/Mean", "op": "Mean", "input": ["StatefulPartitionedCall/EfficientNetV1B0/stack_4_block1_MB_dw_swish/mul", "StatefulPartitionedCall/EfficientNetV1B0/tf.math.reduce_mean_9/Mean/reduction_indices"], "attr": {"keep_dims": {"b": true}, "T": {"type": "DT_FLOAT"}, "Tidx": {"type": "DT_INT32"}}}, {"name": "StatefulPartitionedCall/EfficientNetV1B0/stack_4_block1_se_1_conv/BiasAdd", "op": "_FusedConv2D", "input": ["StatefulPartitionedCall/EfficientNetV1B0/tf.math.reduce_mean_9/Mean", "StatefulPartitionedCall/EfficientNetV1B0/stack_4_block1_se_1_conv/Conv2D/ReadVariableOp", "StatefulPartitionedCall/EfficientNetV1B0/stack_4_block1_se_1_conv/BiasAdd/ReadVariableOp"], "device": "/device:CPU:0", "attr": {"num_args": {"i": "1"}, "T": {"type": "DT_FLOAT"}, "use_cudnn_on_gpu": {"b": true}, "epsilon": {"f": 0.0}, "data_format": {"s": "TkhXQw=="}, "dilations": {"list": {"i": ["1", "1", "1", "1"]}}, "strides": {"list": {"i": ["1", "1", "1", "1"]}}, "fused_ops": {"list": {"s": ["Qmlhc0FkZA=="]}}, "padding": {"s": "VkFMSUQ="}, "explicit_paddings": {"list": {}}}}, {"name": "StatefulPartitionedCall/EfficientNetV1B0/activation_18/Sigmoid", "op": "Sigmoid", "input": ["StatefulPartitionedCall/EfficientNetV1B0/stack_4_block1_se_1_conv/BiasAdd"], "attr": {"T": {"type": "DT_FLOAT"}}}, {"name": "StatefulPartitionedCall/EfficientNetV1B0/activation_18/mul", "op": "Mul", "input": ["StatefulPartitionedCall/EfficientNetV1B0/stack_4_block1_se_1_conv/BiasAdd", "StatefulPartitionedCall/EfficientNetV1B0/activation_18/Sigmoid"], "attr": {"T": {"type": "DT_FLOAT"}}}, {"name": "StatefulPartitionedCall/EfficientNetV1B0/stack_4_block1_se_2_conv/BiasAdd", "op": "_FusedConv2D", "input": ["StatefulPartitionedCall/EfficientNetV1B0/activation_18/mul", "StatefulPartitionedCall/EfficientNetV1B0/stack_4_block1_se_2_conv/Conv2D/ReadVariableOp", "StatefulPartitionedCall/EfficientNetV1B0/stack_4_block1_se_2_conv/BiasAdd/ReadVariableOp"], "device": "/device:CPU:0", "attr": {"padding": {"s": "VkFMSUQ="}, "num_args": {"i": "1"}, "strides": {"list": {"i": ["1", "1", "1", "1"]}}, "epsilon": {"f": 0.0}, "T": {"type": "DT_FLOAT"}, "data_format": {"s": "TkhXQw=="}, "explicit_paddings": {"list": {}}, "dilations": {"list": {"i": ["1", "1", "1", "1"]}}, "fused_ops": {"list": {"s": ["Qmlhc0FkZA=="]}}, "use_cudnn_on_gpu": {"b": true}}}, {"name": "StatefulPartitionedCall/EfficientNetV1B0/activation_19/Sigmoid", "op": "Sigmoid", "input": ["StatefulPartitionedCall/EfficientNetV1B0/stack_4_block1_se_2_conv/BiasAdd"], "attr": {"T": {"type": "DT_FLOAT"}}}, {"name": "StatefulPartitionedCall/EfficientNetV1B0/multiply_9/mul", "op": "Mul", "input": ["StatefulPartitionedCall/EfficientNetV1B0/stack_4_block1_MB_dw_swish/mul", "StatefulPartitionedCall/EfficientNetV1B0/activation_19/Sigmoid"], "attr": {"T": {"type": "DT_FLOAT"}}}, {"name": "StatefulPartitionedCall/EfficientNetV1B0/stack_4_block1_MB_pw_bn/FusedBatchNormV3", "op": "_FusedConv2D", "input": ["StatefulPartitionedCall/EfficientNetV1B0/multiply_9/mul", "StatefulPartitionedCall/EfficientNetV1B0/stack_4_block1_MB_pw_conv/Conv2D_weights", "StatefulPartitionedCall/EfficientNetV1B0/stack_4_block1_MB_pw_conv/Conv2D_bn_offset"], "device": "/device:CPU:0", "attr": {"dilations": {"list": {"i": ["1", "1", "1", "1"]}}, "explicit_paddings": {"list": {}}, "fused_ops": {"list": {"s": ["Qmlhc0FkZA=="]}}, "num_args": {"i": "1"}, "strides": {"list": {"i": ["1", "1", "1", "1"]}}, "padding": {"s": "VkFMSUQ="}, "epsilon": {"f": 0.0}, "use_cudnn_on_gpu": {"b": true}, "data_format": {"s": "TkhXQw=="}, "T": {"type": "DT_FLOAT"}}}, {"name": "StatefulPartitionedCall/EfficientNetV1B0/add_4/add", "op": "AddV2", "input": ["StatefulPartitionedCall/EfficientNetV1B0/stack_4_block0_MB_pw_bn/FusedBatchNormV3", "StatefulPartitionedCall/EfficientNetV1B0/stack_4_block1_MB_pw_bn/FusedBatchNormV3"], "attr": {"T": {"type": "DT_FLOAT"}}}, {"name": "StatefulPartitionedCall/EfficientNetV1B0/stack_4_block2_sortcut_bn/FusedBatchNormV3", "op": "_FusedConv2D", "input": ["StatefulPartitionedCall/EfficientNetV1B0/add_4/add", "StatefulPartitionedCall/EfficientNetV1B0/stack_4_block2_sortcut_conv/Conv2D_weights", "StatefulPartitionedCall/EfficientNetV1B0/stack_4_block2_sortcut_conv/Conv2D_bn_offset"], "device": "/device:CPU:0", "attr": {"epsilon": {"f": 0.0}, "padding": {"s": "VkFMSUQ="}, "data_format": {"s": "TkhXQw=="}, "strides": {"list": {"i": ["1", "1", "1", "1"]}}, "explicit_paddings": {"list": {}}, "dilations": {"list": {"i": ["1", "1", "1", "1"]}}, "fused_ops": {"list": {"s": ["Qmlhc0FkZA=="]}}, "use_cudnn_on_gpu": {"b": true}, "num_args": {"i": "1"}, "T": {"type": "DT_FLOAT"}}}, {"name": "StatefulPartitionedCall/EfficientNetV1B0/stack_4_block2_sortcut_swish/Sigmoid", "op": "Sigmoid", "input": ["StatefulPartitionedCall/EfficientNetV1B0/stack_4_block2_sortcut_bn/FusedBatchNormV3"], "attr": {"T": {"type": "DT_FLOAT"}}}, {"name": "StatefulPartitionedCall/EfficientNetV1B0/stack_4_block2_sortcut_swish/mul", "op": "Mul", "input": ["StatefulPartitionedCall/EfficientNetV1B0/stack_4_block2_sortcut_bn/FusedBatchNormV3", "StatefulPartitionedCall/EfficientNetV1B0/stack_4_block2_sortcut_swish/Sigmoid"], "attr": {"T": {"type": "DT_FLOAT"}}}, {"name": "StatefulPartitionedCall/EfficientNetV1B0/stack_4_block2_MB_dw_/depthwise", "op": "FusedDepthwiseConv2dNative", "input": ["StatefulPartitionedCall/EfficientNetV1B0/stack_4_block2_sortcut_swish/mul", "StatefulPartitionedCall/EfficientNetV1B0/stack_4_block2_MB_dw_/depthwise_weights", "StatefulPartitionedCall/EfficientNetV1B0/stack_4_block2_MB_dw_/depthwise_bn_offset"], "attr": {"num_args": {"i": "1"}, "padding": {"s": "U0FNRQ=="}, "data_format": {"s": "TkhXQw=="}, "strides": {"list": {"i": ["1", "1", "1", "1"]}}, "dilations": {"list": {"i": ["1", "1", "1", "1"]}}, "T": {"type": "DT_FLOAT"}, "fused_ops": {"list": {"s": ["Qmlhc0FkZA=="]}}, "explicit_paddings": {"list": {}}}}, {"name": "StatefulPartitionedCall/EfficientNetV1B0/stack_4_block2_MB_dw_swish/Sigmoid", "op": "Sigmoid", "input": ["StatefulPartitionedCall/EfficientNetV1B0/stack_4_block2_MB_dw_/depthwise"], "attr": {"T": {"type": "DT_FLOAT"}}}, {"name": "StatefulPartitionedCall/EfficientNetV1B0/stack_4_block2_MB_dw_swish/mul", "op": "Mul", "input": ["StatefulPartitionedCall/EfficientNetV1B0/stack_4_block2_MB_dw_/depthwise", "StatefulPartitionedCall/EfficientNetV1B0/stack_4_block2_MB_dw_swish/Sigmoid"], "attr": {"T": {"type": "DT_FLOAT"}}}, {"name": "StatefulPartitionedCall/EfficientNetV1B0/tf.math.reduce_mean_10/Mean", "op": "Mean", "input": ["StatefulPartitionedCall/EfficientNetV1B0/stack_4_block2_MB_dw_swish/mul", "StatefulPartitionedCall/EfficientNetV1B0/tf.math.reduce_mean_10/Mean/reduction_indices"], "attr": {"T": {"type": "DT_FLOAT"}, "Tidx": {"type": "DT_INT32"}, "keep_dims": {"b": true}}}, {"name": "StatefulPartitionedCall/EfficientNetV1B0/stack_4_block2_se_1_conv/BiasAdd", "op": "_FusedConv2D", "input": ["StatefulPartitionedCall/EfficientNetV1B0/tf.math.reduce_mean_10/Mean", "StatefulPartitionedCall/EfficientNetV1B0/stack_4_block2_se_1_conv/Conv2D/ReadVariableOp", "StatefulPartitionedCall/EfficientNetV1B0/stack_4_block2_se_1_conv/BiasAdd/ReadVariableOp"], "device": "/device:CPU:0", "attr": {"fused_ops": {"list": {"s": ["Qmlhc0FkZA=="]}}, "T": {"type": "DT_FLOAT"}, "explicit_paddings": {"list": {}}, "num_args": {"i": "1"}, "padding": {"s": "VkFMSUQ="}, "epsilon": {"f": 0.0}, "data_format": {"s": "TkhXQw=="}, "strides": {"list": {"i": ["1", "1", "1", "1"]}}, "use_cudnn_on_gpu": {"b": true}, "dilations": {"list": {"i": ["1", "1", "1", "1"]}}}}, {"name": "StatefulPartitionedCall/EfficientNetV1B0/activation_20/Sigmoid", "op": "Sigmoid", "input": ["StatefulPartitionedCall/EfficientNetV1B0/stack_4_block2_se_1_conv/BiasAdd"], "attr": {"T": {"type": "DT_FLOAT"}}}, {"name": "StatefulPartitionedCall/EfficientNetV1B0/activation_20/mul", "op": "Mul", "input": ["StatefulPartitionedCall/EfficientNetV1B0/stack_4_block2_se_1_conv/BiasAdd", "StatefulPartitionedCall/EfficientNetV1B0/activation_20/Sigmoid"], "attr": {"T": {"type": "DT_FLOAT"}}}, {"name": "StatefulPartitionedCall/EfficientNetV1B0/stack_4_block2_se_2_conv/BiasAdd", "op": "_FusedConv2D", "input": ["StatefulPartitionedCall/EfficientNetV1B0/activation_20/mul", "StatefulPartitionedCall/EfficientNetV1B0/stack_4_block2_se_2_conv/Conv2D/ReadVariableOp", "StatefulPartitionedCall/EfficientNetV1B0/stack_4_block2_se_2_conv/BiasAdd/ReadVariableOp"], "device": "/device:CPU:0", "attr": {"padding": {"s": "VkFMSUQ="}, "fused_ops": {"list": {"s": ["Qmlhc0FkZA=="]}}, "epsilon": {"f": 0.0}, "use_cudnn_on_gpu": {"b": true}, "data_format": {"s": "TkhXQw=="}, "T": {"type": "DT_FLOAT"}, "dilations": {"list": {"i": ["1", "1", "1", "1"]}}, "strides": {"list": {"i": ["1", "1", "1", "1"]}}, "explicit_paddings": {"list": {}}, "num_args": {"i": "1"}}}, {"name": "StatefulPartitionedCall/EfficientNetV1B0/activation_21/Sigmoid", "op": "Sigmoid", "input": ["StatefulPartitionedCall/EfficientNetV1B0/stack_4_block2_se_2_conv/BiasAdd"], "attr": {"T": {"type": "DT_FLOAT"}}}, {"name": "StatefulPartitionedCall/EfficientNetV1B0/multiply_10/mul", "op": "Mul", "input": ["StatefulPartitionedCall/EfficientNetV1B0/stack_4_block2_MB_dw_swish/mul", "StatefulPartitionedCall/EfficientNetV1B0/activation_21/Sigmoid"], "attr": {"T": {"type": "DT_FLOAT"}}}, {"name": "StatefulPartitionedCall/EfficientNetV1B0/stack_4_block2_MB_pw_bn/FusedBatchNormV3", "op": "_FusedConv2D", "input": ["StatefulPartitionedCall/EfficientNetV1B0/multiply_10/mul", "StatefulPartitionedCall/EfficientNetV1B0/stack_4_block2_MB_pw_conv/Conv2D_weights", "StatefulPartitionedCall/EfficientNetV1B0/stack_4_block2_MB_pw_conv/Conv2D_bn_offset"], "device": "/device:CPU:0", "attr": {"epsilon": {"f": 0.0}, "strides": {"list": {"i": ["1", "1", "1", "1"]}}, "explicit_paddings": {"list": {}}, "T": {"type": "DT_FLOAT"}, "padding": {"s": "VkFMSUQ="}, "use_cudnn_on_gpu": {"b": true}, "data_format": {"s": "TkhXQw=="}, "dilations": {"list": {"i": ["1", "1", "1", "1"]}}, "fused_ops": {"list": {"s": ["Qmlhc0FkZA=="]}}, "num_args": {"i": "1"}}}, {"name": "StatefulPartitionedCall/EfficientNetV1B0/add_5/add", "op": "AddV2", "input": ["StatefulPartitionedCall/EfficientNetV1B0/add_4/add", "StatefulPartitionedCall/EfficientNetV1B0/stack_4_block2_MB_pw_bn/FusedBatchNormV3"], "attr": {"T": {"type": "DT_FLOAT"}}}, {"name": "StatefulPartitionedCall/EfficientNetV1B0/stack_5_block0_sortcut_bn/FusedBatchNormV3", "op": "_FusedConv2D", "input": ["StatefulPartitionedCall/EfficientNetV1B0/add_5/add", "StatefulPartitionedCall/EfficientNetV1B0/stack_5_block0_sortcut_conv/Conv2D_weights", "StatefulPartitionedCall/EfficientNetV1B0/stack_5_block0_sortcut_conv/Conv2D_bn_offset"], "device": "/device:CPU:0", "attr": {"T": {"type": "DT_FLOAT"}, "data_format": {"s": "TkhXQw=="}, "explicit_paddings": {"list": {}}, "dilations": {"list": {"i": ["1", "1", "1", "1"]}}, "fused_ops": {"list": {"s": ["Qmlhc0FkZA=="]}}, "use_cudnn_on_gpu": {"b": true}, "padding": {"s": "VkFMSUQ="}, "num_args": {"i": "1"}, "strides": {"list": {"i": ["1", "1", "1", "1"]}}, "epsilon": {"f": 0.0}}}, {"name": "StatefulPartitionedCall/EfficientNetV1B0/stack_5_block0_sortcut_swish/Sigmoid", "op": "Sigmoid", "input": ["StatefulPartitionedCall/EfficientNetV1B0/stack_5_block0_sortcut_bn/FusedBatchNormV3"], "attr": {"T": {"type": "DT_FLOAT"}}}, {"name": "StatefulPartitionedCall/EfficientNetV1B0/stack_5_block0_sortcut_swish/mul", "op": "Mul", "input": ["StatefulPartitionedCall/EfficientNetV1B0/stack_5_block0_sortcut_bn/FusedBatchNormV3", "StatefulPartitionedCall/EfficientNetV1B0/stack_5_block0_sortcut_swish/Sigmoid"], "attr": {"T": {"type": "DT_FLOAT"}}}, {"name": "StatefulPartitionedCall/EfficientNetV1B0/stack_5_block0_MB_dw_/depthwise", "op": "FusedDepthwiseConv2dNative", "input": ["StatefulPartitionedCall/EfficientNetV1B0/stack_5_block0_sortcut_swish/mul", "StatefulPartitionedCall/EfficientNetV1B0/stack_5_block0_MB_dw_/depthwise_weights", "StatefulPartitionedCall/EfficientNetV1B0/stack_5_block0_MB_dw_/depthwise_bn_offset"], "attr": {"padding": {"s": "U0FNRQ=="}, "T": {"type": "DT_FLOAT"}, "data_format": {"s": "TkhXQw=="}, "dilations": {"list": {"i": ["1", "1", "1", "1"]}}, "num_args": {"i": "1"}, "fused_ops": {"list": {"s": ["Qmlhc0FkZA=="]}}, "strides": {"list": {"i": ["1", "2", "2", "1"]}}, "explicit_paddings": {"list": {}}}}, {"name": "StatefulPartitionedCall/EfficientNetV1B0/stack_5_block0_MB_dw_swish/Sigmoid", "op": "Sigmoid", "input": ["StatefulPartitionedCall/EfficientNetV1B0/stack_5_block0_MB_dw_/depthwise"], "attr": {"T": {"type": "DT_FLOAT"}}}, {"name": "StatefulPartitionedCall/EfficientNetV1B0/stack_5_block0_MB_dw_swish/mul", "op": "Mul", "input": ["StatefulPartitionedCall/EfficientNetV1B0/stack_5_block0_MB_dw_/depthwise", "StatefulPartitionedCall/EfficientNetV1B0/stack_5_block0_MB_dw_swish/Sigmoid"], "attr": {"T": {"type": "DT_FLOAT"}}}, {"name": "StatefulPartitionedCall/EfficientNetV1B0/tf.math.reduce_mean_11/Mean", "op": "Mean", "input": ["StatefulPartitionedCall/EfficientNetV1B0/stack_5_block0_MB_dw_swish/mul", "StatefulPartitionedCall/EfficientNetV1B0/tf.math.reduce_mean_11/Mean/reduction_indices"], "attr": {"T": {"type": "DT_FLOAT"}, "keep_dims": {"b": true}, "Tidx": {"type": "DT_INT32"}}}, {"name": "StatefulPartitionedCall/EfficientNetV1B0/stack_5_block0_se_1_conv/BiasAdd", "op": "_FusedConv2D", "input": ["StatefulPartitionedCall/EfficientNetV1B0/tf.math.reduce_mean_11/Mean", "StatefulPartitionedCall/EfficientNetV1B0/stack_5_block0_se_1_conv/Conv2D/ReadVariableOp", "StatefulPartitionedCall/EfficientNetV1B0/stack_5_block0_se_1_conv/BiasAdd/ReadVariableOp"], "device": "/device:CPU:0", "attr": {"num_args": {"i": "1"}, "padding": {"s": "VkFMSUQ="}, "strides": {"list": {"i": ["1", "1", "1", "1"]}}, "explicit_paddings": {"list": {}}, "data_format": {"s": "TkhXQw=="}, "dilations": {"list": {"i": ["1", "1", "1", "1"]}}, "T": {"type": "DT_FLOAT"}, "fused_ops": {"list": {"s": ["Qmlhc0FkZA=="]}}, "use_cudnn_on_gpu": {"b": true}, "epsilon": {"f": 0.0}}}, {"name": "StatefulPartitionedCall/EfficientNetV1B0/activation_22/Sigmoid", "op": "Sigmoid", "input": ["StatefulPartitionedCall/EfficientNetV1B0/stack_5_block0_se_1_conv/BiasAdd"], "attr": {"T": {"type": "DT_FLOAT"}}}, {"name": "StatefulPartitionedCall/EfficientNetV1B0/activation_22/mul", "op": "Mul", "input": ["StatefulPartitionedCall/EfficientNetV1B0/stack_5_block0_se_1_conv/BiasAdd", "StatefulPartitionedCall/EfficientNetV1B0/activation_22/Sigmoid"], "attr": {"T": {"type": "DT_FLOAT"}}}, {"name": "StatefulPartitionedCall/EfficientNetV1B0/stack_5_block0_se_2_conv/BiasAdd", "op": "_FusedConv2D", "input": ["StatefulPartitionedCall/EfficientNetV1B0/activation_22/mul", "StatefulPartitionedCall/EfficientNetV1B0/stack_5_block0_se_2_conv/Conv2D/ReadVariableOp", "StatefulPartitionedCall/EfficientNetV1B0/stack_5_block0_se_2_conv/BiasAdd/ReadVariableOp"], "device": "/device:CPU:0", "attr": {"padding": {"s": "VkFMSUQ="}, "use_cudnn_on_gpu": {"b": true}, "T": {"type": "DT_FLOAT"}, "data_format": {"s": "TkhXQw=="}, "strides": {"list": {"i": ["1", "1", "1", "1"]}}, "num_args": {"i": "1"}, "dilations": {"list": {"i": ["1", "1", "1", "1"]}}, "epsilon": {"f": 0.0}, "explicit_paddings": {"list": {}}, "fused_ops": {"list": {"s": ["Qmlhc0FkZA=="]}}}}, {"name": "StatefulPartitionedCall/EfficientNetV1B0/activation_23/Sigmoid", "op": "Sigmoid", "input": ["StatefulPartitionedCall/EfficientNetV1B0/stack_5_block0_se_2_conv/BiasAdd"], "attr": {"T": {"type": "DT_FLOAT"}}}, {"name": "StatefulPartitionedCall/EfficientNetV1B0/multiply_11/mul", "op": "Mul", "input": ["StatefulPartitionedCall/EfficientNetV1B0/stack_5_block0_MB_dw_swish/mul", "StatefulPartitionedCall/EfficientNetV1B0/activation_23/Sigmoid"], "attr": {"T": {"type": "DT_FLOAT"}}}, {"name": "StatefulPartitionedCall/EfficientNetV1B0/stack_5_block0_MB_pw_bn/FusedBatchNormV3", "op": "_FusedConv2D", "input": ["StatefulPartitionedCall/EfficientNetV1B0/multiply_11/mul", "StatefulPartitionedCall/EfficientNetV1B0/stack_5_block0_MB_pw_conv/Conv2D_weights", "StatefulPartitionedCall/EfficientNetV1B0/stack_5_block0_MB_pw_conv/Conv2D_bn_offset"], "device": "/device:CPU:0", "attr": {"fused_ops": {"list": {"s": ["Qmlhc0FkZA=="]}}, "data_format": {"s": "TkhXQw=="}, "strides": {"list": {"i": ["1", "1", "1", "1"]}}, "explicit_paddings": {"list": {}}, "dilations": {"list": {"i": ["1", "1", "1", "1"]}}, "use_cudnn_on_gpu": {"b": true}, "num_args": {"i": "1"}, "epsilon": {"f": 0.0}, "padding": {"s": "VkFMSUQ="}, "T": {"type": "DT_FLOAT"}}}, {"name": "StatefulPartitionedCall/EfficientNetV1B0/stack_5_block1_sortcut_bn/FusedBatchNormV3", "op": "_FusedConv2D", "input": ["StatefulPartitionedCall/EfficientNetV1B0/stack_5_block0_MB_pw_bn/FusedBatchNormV3", "StatefulPartitionedCall/EfficientNetV1B0/stack_5_block1_sortcut_conv/Conv2D_weights", "StatefulPartitionedCall/EfficientNetV1B0/stack_5_block1_sortcut_conv/Conv2D_bn_offset"], "device": "/device:CPU:0", "attr": {"padding": {"s": "VkFMSUQ="}, "explicit_paddings": {"list": {}}, "dilations": {"list": {"i": ["1", "1", "1", "1"]}}, "T": {"type": "DT_FLOAT"}, "use_cudnn_on_gpu": {"b": true}, "epsilon": {"f": 0.0}, "num_args": {"i": "1"}, "strides": {"list": {"i": ["1", "1", "1", "1"]}}, "fused_ops": {"list": {"s": ["Qmlhc0FkZA=="]}}, "data_format": {"s": "TkhXQw=="}}}, {"name": "StatefulPartitionedCall/EfficientNetV1B0/stack_5_block1_sortcut_swish/Sigmoid", "op": "Sigmoid", "input": ["StatefulPartitionedCall/EfficientNetV1B0/stack_5_block1_sortcut_bn/FusedBatchNormV3"], "attr": {"T": {"type": "DT_FLOAT"}}}, {"name": "StatefulPartitionedCall/EfficientNetV1B0/stack_5_block1_sortcut_swish/mul", "op": "Mul", "input": ["StatefulPartitionedCall/EfficientNetV1B0/stack_5_block1_sortcut_bn/FusedBatchNormV3", "StatefulPartitionedCall/EfficientNetV1B0/stack_5_block1_sortcut_swish/Sigmoid"], "attr": {"T": {"type": "DT_FLOAT"}}}, {"name": "StatefulPartitionedCall/EfficientNetV1B0/stack_5_block1_MB_dw_/depthwise", "op": "FusedDepthwiseConv2dNative", "input": ["StatefulPartitionedCall/EfficientNetV1B0/stack_5_block1_sortcut_swish/mul", "StatefulPartitionedCall/EfficientNetV1B0/stack_5_block1_MB_dw_/depthwise_weights", "StatefulPartitionedCall/EfficientNetV1B0/stack_5_block1_MB_dw_/depthwise_bn_offset"], "attr": {"T": {"type": "DT_FLOAT"}, "strides": {"list": {"i": ["1", "1", "1", "1"]}}, "fused_ops": {"list": {"s": ["Qmlhc0FkZA=="]}}, "explicit_paddings": {"list": {}}, "data_format": {"s": "TkhXQw=="}, "dilations": {"list": {"i": ["1", "1", "1", "1"]}}, "padding": {"s": "U0FNRQ=="}, "num_args": {"i": "1"}}}, {"name": "StatefulPartitionedCall/EfficientNetV1B0/stack_5_block1_MB_dw_swish/Sigmoid", "op": "Sigmoid", "input": ["StatefulPartitionedCall/EfficientNetV1B0/stack_5_block1_MB_dw_/depthwise"], "attr": {"T": {"type": "DT_FLOAT"}}}, {"name": "StatefulPartitionedCall/EfficientNetV1B0/stack_5_block1_MB_dw_swish/mul", "op": "Mul", "input": ["StatefulPartitionedCall/EfficientNetV1B0/stack_5_block1_MB_dw_/depthwise", "StatefulPartitionedCall/EfficientNetV1B0/stack_5_block1_MB_dw_swish/Sigmoid"], "attr": {"T": {"type": "DT_FLOAT"}}}, {"name": "StatefulPartitionedCall/EfficientNetV1B0/tf.math.reduce_mean_12/Mean", "op": "Mean", "input": ["StatefulPartitionedCall/EfficientNetV1B0/stack_5_block1_MB_dw_swish/mul", "StatefulPartitionedCall/EfficientNetV1B0/tf.math.reduce_mean_12/Mean/reduction_indices"], "attr": {"keep_dims": {"b": true}, "Tidx": {"type": "DT_INT32"}, "T": {"type": "DT_FLOAT"}}}, {"name": "StatefulPartitionedCall/EfficientNetV1B0/stack_5_block1_se_1_conv/BiasAdd", "op": "_FusedConv2D", "input": ["StatefulPartitionedCall/EfficientNetV1B0/tf.math.reduce_mean_12/Mean", "StatefulPartitionedCall/EfficientNetV1B0/stack_5_block1_se_1_conv/Conv2D/ReadVariableOp", "StatefulPartitionedCall/EfficientNetV1B0/stack_5_block1_se_1_conv/BiasAdd/ReadVariableOp"], "device": "/device:CPU:0", "attr": {"epsilon": {"f": 0.0}, "strides": {"list": {"i": ["1", "1", "1", "1"]}}, "explicit_paddings": {"list": {}}, "padding": {"s": "VkFMSUQ="}, "T": {"type": "DT_FLOAT"}, "use_cudnn_on_gpu": {"b": true}, "data_format": {"s": "TkhXQw=="}, "fused_ops": {"list": {"s": ["Qmlhc0FkZA=="]}}, "num_args": {"i": "1"}, "dilations": {"list": {"i": ["1", "1", "1", "1"]}}}}, {"name": "StatefulPartitionedCall/EfficientNetV1B0/activation_24/Sigmoid", "op": "Sigmoid", "input": ["StatefulPartitionedCall/EfficientNetV1B0/stack_5_block1_se_1_conv/BiasAdd"], "attr": {"T": {"type": "DT_FLOAT"}}}, {"name": "StatefulPartitionedCall/EfficientNetV1B0/activation_24/mul", "op": "Mul", "input": ["StatefulPartitionedCall/EfficientNetV1B0/stack_5_block1_se_1_conv/BiasAdd", "StatefulPartitionedCall/EfficientNetV1B0/activation_24/Sigmoid"], "attr": {"T": {"type": "DT_FLOAT"}}}, {"name": "StatefulPartitionedCall/EfficientNetV1B0/stack_5_block1_se_2_conv/BiasAdd", "op": "_FusedConv2D", "input": ["StatefulPartitionedCall/EfficientNetV1B0/activation_24/mul", "StatefulPartitionedCall/EfficientNetV1B0/stack_5_block1_se_2_conv/Conv2D/ReadVariableOp", "StatefulPartitionedCall/EfficientNetV1B0/stack_5_block1_se_2_conv/BiasAdd/ReadVariableOp"], "device": "/device:CPU:0", "attr": {"fused_ops": {"list": {"s": ["Qmlhc0FkZA=="]}}, "use_cudnn_on_gpu": {"b": true}, "num_args": {"i": "1"}, "T": {"type": "DT_FLOAT"}, "epsilon": {"f": 0.0}, "padding": {"s": "VkFMSUQ="}, "data_format": {"s": "TkhXQw=="}, "strides": {"list": {"i": ["1", "1", "1", "1"]}}, "explicit_paddings": {"list": {}}, "dilations": {"list": {"i": ["1", "1", "1", "1"]}}}}, {"name": "StatefulPartitionedCall/EfficientNetV1B0/activation_25/Sigmoid", "op": "Sigmoid", "input": ["StatefulPartitionedCall/EfficientNetV1B0/stack_5_block1_se_2_conv/BiasAdd"], "attr": {"T": {"type": "DT_FLOAT"}}}, {"name": "StatefulPartitionedCall/EfficientNetV1B0/multiply_12/mul", "op": "Mul", "input": ["StatefulPartitionedCall/EfficientNetV1B0/stack_5_block1_MB_dw_swish/mul", "StatefulPartitionedCall/EfficientNetV1B0/activation_25/Sigmoid"], "attr": {"T": {"type": "DT_FLOAT"}}}, {"name": "StatefulPartitionedCall/EfficientNetV1B0/stack_5_block1_MB_pw_bn/FusedBatchNormV3", "op": "_FusedConv2D", "input": ["StatefulPartitionedCall/EfficientNetV1B0/multiply_12/mul", "StatefulPartitionedCall/EfficientNetV1B0/stack_5_block1_MB_pw_conv/Conv2D_weights", "StatefulPartitionedCall/EfficientNetV1B0/stack_5_block1_MB_pw_conv/Conv2D_bn_offset"], "device": "/device:CPU:0", "attr": {"T": {"type": "DT_FLOAT"}, "explicit_paddings": {"list": {}}, "data_format": {"s": "TkhXQw=="}, "dilations": {"list": {"i": ["1", "1", "1", "1"]}}, "fused_ops": {"list": {"s": ["Qmlhc0FkZA=="]}}, "use_cudnn_on_gpu": {"b": true}, "padding": {"s": "VkFMSUQ="}, "epsilon": {"f": 0.0}, "strides": {"list": {"i": ["1", "1", "1", "1"]}}, "num_args": {"i": "1"}}}, {"name": "StatefulPartitionedCall/EfficientNetV1B0/add_6/add", "op": "AddV2", "input": ["StatefulPartitionedCall/EfficientNetV1B0/stack_5_block0_MB_pw_bn/FusedBatchNormV3", "StatefulPartitionedCall/EfficientNetV1B0/stack_5_block1_MB_pw_bn/FusedBatchNormV3"], "attr": {"T": {"type": "DT_FLOAT"}}}, {"name": "StatefulPartitionedCall/EfficientNetV1B0/stack_5_block2_sortcut_bn/FusedBatchNormV3", "op": "_FusedConv2D", "input": ["StatefulPartitionedCall/EfficientNetV1B0/add_6/add", "StatefulPartitionedCall/EfficientNetV1B0/stack_5_block2_sortcut_conv/Conv2D_weights", "StatefulPartitionedCall/EfficientNetV1B0/stack_5_block2_sortcut_conv/Conv2D_bn_offset"], "device": "/device:CPU:0", "attr": {"data_format": {"s": "TkhXQw=="}, "dilations": {"list": {"i": ["1", "1", "1", "1"]}}, "use_cudnn_on_gpu": {"b": true}, "T": {"type": "DT_FLOAT"}, "epsilon": {"f": 0.0}, "strides": {"list": {"i": ["1", "1", "1", "1"]}}, "num_args": {"i": "1"}, "fused_ops": {"list": {"s": ["Qmlhc0FkZA=="]}}, "padding": {"s": "VkFMSUQ="}, "explicit_paddings": {"list": {}}}}, {"name": "StatefulPartitionedCall/EfficientNetV1B0/stack_5_block2_sortcut_swish/Sigmoid", "op": "Sigmoid", "input": ["StatefulPartitionedCall/EfficientNetV1B0/stack_5_block2_sortcut_bn/FusedBatchNormV3"], "attr": {"T": {"type": "DT_FLOAT"}}}, {"name": "StatefulPartitionedCall/EfficientNetV1B0/stack_5_block2_sortcut_swish/mul", "op": "Mul", "input": ["StatefulPartitionedCall/EfficientNetV1B0/stack_5_block2_sortcut_bn/FusedBatchNormV3", "StatefulPartitionedCall/EfficientNetV1B0/stack_5_block2_sortcut_swish/Sigmoid"], "attr": {"T": {"type": "DT_FLOAT"}}}, {"name": "StatefulPartitionedCall/EfficientNetV1B0/stack_5_block2_MB_dw_/depthwise", "op": "FusedDepthwiseConv2dNative", "input": ["StatefulPartitionedCall/EfficientNetV1B0/stack_5_block2_sortcut_swish/mul", "StatefulPartitionedCall/EfficientNetV1B0/stack_5_block2_MB_dw_/depthwise_weights", "StatefulPartitionedCall/EfficientNetV1B0/stack_5_block2_MB_dw_/depthwise_bn_offset"], "attr": {"strides": {"list": {"i": ["1", "1", "1", "1"]}}, "fused_ops": {"list": {"s": ["Qmlhc0FkZA=="]}}, "explicit_paddings": {"list": {}}, "data_format": {"s": "TkhXQw=="}, "dilations": {"list": {"i": ["1", "1", "1", "1"]}}, "num_args": {"i": "1"}, "T": {"type": "DT_FLOAT"}, "padding": {"s": "U0FNRQ=="}}}, {"name": "StatefulPartitionedCall/EfficientNetV1B0/stack_5_block2_MB_dw_swish/Sigmoid", "op": "Sigmoid", "input": ["StatefulPartitionedCall/EfficientNetV1B0/stack_5_block2_MB_dw_/depthwise"], "attr": {"T": {"type": "DT_FLOAT"}}}, {"name": "StatefulPartitionedCall/EfficientNetV1B0/stack_5_block2_MB_dw_swish/mul", "op": "Mul", "input": ["StatefulPartitionedCall/EfficientNetV1B0/stack_5_block2_MB_dw_/depthwise", "StatefulPartitionedCall/EfficientNetV1B0/stack_5_block2_MB_dw_swish/Sigmoid"], "attr": {"T": {"type": "DT_FLOAT"}}}, {"name": "StatefulPartitionedCall/EfficientNetV1B0/tf.math.reduce_mean_13/Mean", "op": "Mean", "input": ["StatefulPartitionedCall/EfficientNetV1B0/stack_5_block2_MB_dw_swish/mul", "StatefulPartitionedCall/EfficientNetV1B0/tf.math.reduce_mean_13/Mean/reduction_indices"], "attr": {"Tidx": {"type": "DT_INT32"}, "keep_dims": {"b": true}, "T": {"type": "DT_FLOAT"}}}, {"name": "StatefulPartitionedCall/EfficientNetV1B0/stack_5_block2_se_1_conv/BiasAdd", "op": "_FusedConv2D", "input": ["StatefulPartitionedCall/EfficientNetV1B0/tf.math.reduce_mean_13/Mean", "StatefulPartitionedCall/EfficientNetV1B0/stack_5_block2_se_1_conv/Conv2D/ReadVariableOp", "StatefulPartitionedCall/EfficientNetV1B0/stack_5_block2_se_1_conv/BiasAdd/ReadVariableOp"], "device": "/device:CPU:0", "attr": {"data_format": {"s": "TkhXQw=="}, "dilations": {"list": {"i": ["1", "1", "1", "1"]}}, "T": {"type": "DT_FLOAT"}, "fused_ops": {"list": {"s": ["Qmlhc0FkZA=="]}}, "use_cudnn_on_gpu": {"b": true}, "epsilon": {"f": 0.0}, "num_args": {"i": "1"}, "padding": {"s": "VkFMSUQ="}, "strides": {"list": {"i": ["1", "1", "1", "1"]}}, "explicit_paddings": {"list": {}}}}, {"name": "StatefulPartitionedCall/EfficientNetV1B0/activation_26/Sigmoid", "op": "Sigmoid", "input": ["StatefulPartitionedCall/EfficientNetV1B0/stack_5_block2_se_1_conv/BiasAdd"], "attr": {"T": {"type": "DT_FLOAT"}}}, {"name": "StatefulPartitionedCall/EfficientNetV1B0/activation_26/mul", "op": "Mul", "input": ["StatefulPartitionedCall/EfficientNetV1B0/stack_5_block2_se_1_conv/BiasAdd", "StatefulPartitionedCall/EfficientNetV1B0/activation_26/Sigmoid"], "attr": {"T": {"type": "DT_FLOAT"}}}, {"name": "StatefulPartitionedCall/EfficientNetV1B0/stack_5_block2_se_2_conv/BiasAdd", "op": "_FusedConv2D", "input": ["StatefulPartitionedCall/EfficientNetV1B0/activation_26/mul", "StatefulPartitionedCall/EfficientNetV1B0/stack_5_block2_se_2_conv/Conv2D/ReadVariableOp", "StatefulPartitionedCall/EfficientNetV1B0/stack_5_block2_se_2_conv/BiasAdd/ReadVariableOp"], "device": "/device:CPU:0", "attr": {"explicit_paddings": {"list": {}}, "use_cudnn_on_gpu": {"b": true}, "data_format": {"s": "TkhXQw=="}, "strides": {"list": {"i": ["1", "1", "1", "1"]}}, "fused_ops": {"list": {"s": ["Qmlhc0FkZA=="]}}, "dilations": {"list": {"i": ["1", "1", "1", "1"]}}, "padding": {"s": "VkFMSUQ="}, "num_args": {"i": "1"}, "epsilon": {"f": 0.0}, "T": {"type": "DT_FLOAT"}}}, {"name": "StatefulPartitionedCall/EfficientNetV1B0/activation_27/Sigmoid", "op": "Sigmoid", "input": ["StatefulPartitionedCall/EfficientNetV1B0/stack_5_block2_se_2_conv/BiasAdd"], "attr": {"T": {"type": "DT_FLOAT"}}}, {"name": "StatefulPartitionedCall/EfficientNetV1B0/multiply_13/mul", "op": "Mul", "input": ["StatefulPartitionedCall/EfficientNetV1B0/stack_5_block2_MB_dw_swish/mul", "StatefulPartitionedCall/EfficientNetV1B0/activation_27/Sigmoid"], "attr": {"T": {"type": "DT_FLOAT"}}}, {"name": "StatefulPartitionedCall/EfficientNetV1B0/stack_5_block2_MB_pw_bn/FusedBatchNormV3", "op": "_FusedConv2D", "input": ["StatefulPartitionedCall/EfficientNetV1B0/multiply_13/mul", "StatefulPartitionedCall/EfficientNetV1B0/stack_5_block2_MB_pw_conv/Conv2D_weights", "StatefulPartitionedCall/EfficientNetV1B0/stack_5_block2_MB_pw_conv/Conv2D_bn_offset"], "device": "/device:CPU:0", "attr": {"padding": {"s": "VkFMSUQ="}, "strides": {"list": {"i": ["1", "1", "1", "1"]}}, "fused_ops": {"list": {"s": ["Qmlhc0FkZA=="]}}, "explicit_paddings": {"list": {}}, "epsilon": {"f": 0.0}, "T": {"type": "DT_FLOAT"}, "use_cudnn_on_gpu": {"b": true}, "data_format": {"s": "TkhXQw=="}, "dilations": {"list": {"i": ["1", "1", "1", "1"]}}, "num_args": {"i": "1"}}}, {"name": "StatefulPartitionedCall/EfficientNetV1B0/add_7/add", "op": "AddV2", "input": ["StatefulPartitionedCall/EfficientNetV1B0/add_6/add", "StatefulPartitionedCall/EfficientNetV1B0/stack_5_block2_MB_pw_bn/FusedBatchNormV3"], "attr": {"T": {"type": "DT_FLOAT"}}}, {"name": "StatefulPartitionedCall/EfficientNetV1B0/stack_5_block3_sortcut_bn/FusedBatchNormV3", "op": "_FusedConv2D", "input": ["StatefulPartitionedCall/EfficientNetV1B0/add_7/add", "StatefulPartitionedCall/EfficientNetV1B0/stack_5_block3_sortcut_conv/Conv2D_weights", "StatefulPartitionedCall/EfficientNetV1B0/stack_5_block3_sortcut_conv/Conv2D_bn_offset"], "device": "/device:CPU:0", "attr": {"use_cudnn_on_gpu": {"b": true}, "num_args": {"i": "1"}, "strides": {"list": {"i": ["1", "1", "1", "1"]}}, "T": {"type": "DT_FLOAT"}, "fused_ops": {"list": {"s": ["Qmlhc0FkZA=="]}}, "epsilon": {"f": 0.0}, "data_format": {"s": "TkhXQw=="}, "padding": {"s": "VkFMSUQ="}, "explicit_paddings": {"list": {}}, "dilations": {"list": {"i": ["1", "1", "1", "1"]}}}}, {"name": "StatefulPartitionedCall/EfficientNetV1B0/stack_5_block3_sortcut_swish/Sigmoid", "op": "Sigmoid", "input": ["StatefulPartitionedCall/EfficientNetV1B0/stack_5_block3_sortcut_bn/FusedBatchNormV3"], "attr": {"T": {"type": "DT_FLOAT"}}}, {"name": "StatefulPartitionedCall/EfficientNetV1B0/stack_5_block3_sortcut_swish/mul", "op": "Mul", "input": ["StatefulPartitionedCall/EfficientNetV1B0/stack_5_block3_sortcut_bn/FusedBatchNormV3", "StatefulPartitionedCall/EfficientNetV1B0/stack_5_block3_sortcut_swish/Sigmoid"], "attr": {"T": {"type": "DT_FLOAT"}}}, {"name": "StatefulPartitionedCall/EfficientNetV1B0/stack_5_block3_MB_dw_/depthwise", "op": "FusedDepthwiseConv2dNative", "input": ["StatefulPartitionedCall/EfficientNetV1B0/stack_5_block3_sortcut_swish/mul", "StatefulPartitionedCall/EfficientNetV1B0/stack_5_block3_MB_dw_/depthwise_weights", "StatefulPartitionedCall/EfficientNetV1B0/stack_5_block3_MB_dw_/depthwise_bn_offset"], "attr": {"explicit_paddings": {"list": {}}, "data_format": {"s": "TkhXQw=="}, "dilations": {"list": {"i": ["1", "1", "1", "1"]}}, "num_args": {"i": "1"}, "fused_ops": {"list": {"s": ["Qmlhc0FkZA=="]}}, "strides": {"list": {"i": ["1", "1", "1", "1"]}}, "T": {"type": "DT_FLOAT"}, "padding": {"s": "U0FNRQ=="}}}, {"name": "StatefulPartitionedCall/EfficientNetV1B0/stack_5_block3_MB_dw_swish/Sigmoid", "op": "Sigmoid", "input": ["StatefulPartitionedCall/EfficientNetV1B0/stack_5_block3_MB_dw_/depthwise"], "attr": {"T": {"type": "DT_FLOAT"}}}, {"name": "StatefulPartitionedCall/EfficientNetV1B0/stack_5_block3_MB_dw_swish/mul", "op": "Mul", "input": ["StatefulPartitionedCall/EfficientNetV1B0/stack_5_block3_MB_dw_/depthwise", "StatefulPartitionedCall/EfficientNetV1B0/stack_5_block3_MB_dw_swish/Sigmoid"], "attr": {"T": {"type": "DT_FLOAT"}}}, {"name": "StatefulPartitionedCall/EfficientNetV1B0/tf.math.reduce_mean_14/Mean", "op": "Mean", "input": ["StatefulPartitionedCall/EfficientNetV1B0/stack_5_block3_MB_dw_swish/mul", "StatefulPartitionedCall/EfficientNetV1B0/tf.math.reduce_mean_14/Mean/reduction_indices"], "attr": {"keep_dims": {"b": true}, "T": {"type": "DT_FLOAT"}, "Tidx": {"type": "DT_INT32"}}}, {"name": "StatefulPartitionedCall/EfficientNetV1B0/stack_5_block3_se_1_conv/BiasAdd", "op": "_FusedConv2D", "input": ["StatefulPartitionedCall/EfficientNetV1B0/tf.math.reduce_mean_14/Mean", "StatefulPartitionedCall/EfficientNetV1B0/stack_5_block3_se_1_conv/Conv2D/ReadVariableOp", "StatefulPartitionedCall/EfficientNetV1B0/stack_5_block3_se_1_conv/BiasAdd/ReadVariableOp"], "device": "/device:CPU:0", "attr": {"use_cudnn_on_gpu": {"b": true}, "padding": {"s": "VkFMSUQ="}, "T": {"type": "DT_FLOAT"}, "data_format": {"s": "TkhXQw=="}, "dilations": {"list": {"i": ["1", "1", "1", "1"]}}, "num_args": {"i": "1"}, "strides": {"list": {"i": ["1", "1", "1", "1"]}}, "epsilon": {"f": 0.0}, "fused_ops": {"list": {"s": ["Qmlhc0FkZA=="]}}, "explicit_paddings": {"list": {}}}}, {"name": "StatefulPartitionedCall/EfficientNetV1B0/activation_28/Sigmoid", "op": "Sigmoid", "input": ["StatefulPartitionedCall/EfficientNetV1B0/stack_5_block3_se_1_conv/BiasAdd"], "attr": {"T": {"type": "DT_FLOAT"}}}, {"name": "StatefulPartitionedCall/EfficientNetV1B0/activation_28/mul", "op": "Mul", "input": ["StatefulPartitionedCall/EfficientNetV1B0/stack_5_block3_se_1_conv/BiasAdd", "StatefulPartitionedCall/EfficientNetV1B0/activation_28/Sigmoid"], "attr": {"T": {"type": "DT_FLOAT"}}}, {"name": "StatefulPartitionedCall/EfficientNetV1B0/stack_5_block3_se_2_conv/BiasAdd", "op": "_FusedConv2D", "input": ["StatefulPartitionedCall/EfficientNetV1B0/activation_28/mul", "StatefulPartitionedCall/EfficientNetV1B0/stack_5_block3_se_2_conv/Conv2D/ReadVariableOp", "StatefulPartitionedCall/EfficientNetV1B0/stack_5_block3_se_2_conv/BiasAdd/ReadVariableOp"], "device": "/device:CPU:0", "attr": {"epsilon": {"f": 0.0}, "use_cudnn_on_gpu": {"b": true}, "data_format": {"s": "TkhXQw=="}, "dilations": {"list": {"i": ["1", "1", "1", "1"]}}, "num_args": {"i": "1"}, "padding": {"s": "VkFMSUQ="}, "strides": {"list": {"i": ["1", "1", "1", "1"]}}, "fused_ops": {"list": {"s": ["Qmlhc0FkZA=="]}}, "T": {"type": "DT_FLOAT"}, "explicit_paddings": {"list": {}}}}, {"name": "StatefulPartitionedCall/EfficientNetV1B0/activation_29/Sigmoid", "op": "Sigmoid", "input": ["StatefulPartitionedCall/EfficientNetV1B0/stack_5_block3_se_2_conv/BiasAdd"], "attr": {"T": {"type": "DT_FLOAT"}}}, {"name": "StatefulPartitionedCall/EfficientNetV1B0/multiply_14/mul", "op": "Mul", "input": ["StatefulPartitionedCall/EfficientNetV1B0/stack_5_block3_MB_dw_swish/mul", "StatefulPartitionedCall/EfficientNetV1B0/activation_29/Sigmoid"], "attr": {"T": {"type": "DT_FLOAT"}}}, {"name": "StatefulPartitionedCall/EfficientNetV1B0/stack_5_block3_MB_pw_bn/FusedBatchNormV3", "op": "_FusedConv2D", "input": ["StatefulPartitionedCall/EfficientNetV1B0/multiply_14/mul", "StatefulPartitionedCall/EfficientNetV1B0/stack_5_block3_MB_pw_conv/Conv2D_weights", "StatefulPartitionedCall/EfficientNetV1B0/stack_5_block3_MB_pw_conv/Conv2D_bn_offset"], "device": "/device:CPU:0", "attr": {"padding": {"s": "VkFMSUQ="}, "num_args": {"i": "1"}, "fused_ops": {"list": {"s": ["Qmlhc0FkZA=="]}}, "epsilon": {"f": 0.0}, "strides": {"list": {"i": ["1", "1", "1", "1"]}}, "explicit_paddings": {"list": {}}, "data_format": {"s": "TkhXQw=="}, "dilations": {"list": {"i": ["1", "1", "1", "1"]}}, "T": {"type": "DT_FLOAT"}, "use_cudnn_on_gpu": {"b": true}}}, {"name": "StatefulPartitionedCall/EfficientNetV1B0/add_8/add", "op": "AddV2", "input": ["StatefulPartitionedCall/EfficientNetV1B0/add_7/add", "StatefulPartitionedCall/EfficientNetV1B0/stack_5_block3_MB_pw_bn/FusedBatchNormV3"], "attr": {"T": {"type": "DT_FLOAT"}}}, {"name": "StatefulPartitionedCall/EfficientNetV1B0/stack_6_block0_sortcut_bn/FusedBatchNormV3", "op": "_FusedConv2D", "input": ["StatefulPartitionedCall/EfficientNetV1B0/add_8/add", "StatefulPartitionedCall/EfficientNetV1B0/stack_6_block0_sortcut_conv/Conv2D_weights", "StatefulPartitionedCall/EfficientNetV1B0/stack_6_block0_sortcut_conv/Conv2D_bn_offset"], "device": "/device:CPU:0", "attr": {"padding": {"s": "VkFMSUQ="}, "epsilon": {"f": 0.0}, "data_format": {"s": "TkhXQw=="}, "strides": {"list": {"i": ["1", "1", "1", "1"]}}, "explicit_paddings": {"list": {}}, "dilations": {"list": {"i": ["1", "1", "1", "1"]}}, "fused_ops": {"list": {"s": ["Qmlhc0FkZA=="]}}, "use_cudnn_on_gpu": {"b": true}, "num_args": {"i": "1"}, "T": {"type": "DT_FLOAT"}}}, {"name": "StatefulPartitionedCall/EfficientNetV1B0/stack_6_block0_sortcut_swish/Sigmoid", "op": "Sigmoid", "input": ["StatefulPartitionedCall/EfficientNetV1B0/stack_6_block0_sortcut_bn/FusedBatchNormV3"], "attr": {"T": {"type": "DT_FLOAT"}}}, {"name": "StatefulPartitionedCall/EfficientNetV1B0/stack_6_block0_sortcut_swish/mul", "op": "Mul", "input": ["StatefulPartitionedCall/EfficientNetV1B0/stack_6_block0_sortcut_bn/FusedBatchNormV3", "StatefulPartitionedCall/EfficientNetV1B0/stack_6_block0_sortcut_swish/Sigmoid"], "attr": {"T": {"type": "DT_FLOAT"}}}, {"name": "StatefulPartitionedCall/EfficientNetV1B0/stack_6_block0_MB_dw_/depthwise", "op": "FusedDepthwiseConv2dNative", "input": ["StatefulPartitionedCall/EfficientNetV1B0/stack_6_block0_sortcut_swish/mul", "StatefulPartitionedCall/EfficientNetV1B0/stack_6_block0_MB_dw_/depthwise_weights", "StatefulPartitionedCall/EfficientNetV1B0/stack_6_block0_MB_dw_/depthwise_bn_offset"], "attr": {"fused_ops": {"list": {"s": ["Qmlhc0FkZA=="]}}, "T": {"type": "DT_FLOAT"}, "data_format": {"s": "TkhXQw=="}, "num_args": {"i": "1"}, "explicit_paddings": {"list": {}}, "strides": {"list": {"i": ["1", "1", "1", "1"]}}, "padding": {"s": "U0FNRQ=="}, "dilations": {"list": {"i": ["1", "1", "1", "1"]}}}}, {"name": "StatefulPartitionedCall/EfficientNetV1B0/stack_6_block0_MB_dw_swish/Sigmoid", "op": "Sigmoid", "input": ["StatefulPartitionedCall/EfficientNetV1B0/stack_6_block0_MB_dw_/depthwise"], "attr": {"T": {"type": "DT_FLOAT"}}}, {"name": "StatefulPartitionedCall/EfficientNetV1B0/stack_6_block0_MB_dw_swish/mul", "op": "Mul", "input": ["StatefulPartitionedCall/EfficientNetV1B0/stack_6_block0_MB_dw_/depthwise", "StatefulPartitionedCall/EfficientNetV1B0/stack_6_block0_MB_dw_swish/Sigmoid"], "attr": {"T": {"type": "DT_FLOAT"}}}, {"name": "StatefulPartitionedCall/EfficientNetV1B0/tf.math.reduce_mean_15/Mean", "op": "Mean", "input": ["StatefulPartitionedCall/EfficientNetV1B0/stack_6_block0_MB_dw_swish/mul", "StatefulPartitionedCall/EfficientNetV1B0/tf.math.reduce_mean_15/Mean/reduction_indices"], "attr": {"T": {"type": "DT_FLOAT"}, "keep_dims": {"b": true}, "Tidx": {"type": "DT_INT32"}}}, {"name": "StatefulPartitionedCall/EfficientNetV1B0/stack_6_block0_se_1_conv/BiasAdd", "op": "_FusedConv2D", "input": ["StatefulPartitionedCall/EfficientNetV1B0/tf.math.reduce_mean_15/Mean", "StatefulPartitionedCall/EfficientNetV1B0/stack_6_block0_se_1_conv/Conv2D/ReadVariableOp", "StatefulPartitionedCall/EfficientNetV1B0/stack_6_block0_se_1_conv/BiasAdd/ReadVariableOp"], "device": "/device:CPU:0", "attr": {"data_format": {"s": "TkhXQw=="}, "use_cudnn_on_gpu": {"b": true}, "T": {"type": "DT_FLOAT"}, "strides": {"list": {"i": ["1", "1", "1", "1"]}}, "num_args": {"i": "1"}, "fused_ops": {"list": {"s": ["Qmlhc0FkZA=="]}}, "explicit_paddings": {"list": {}}, "epsilon": {"f": 0.0}, "padding": {"s": "VkFMSUQ="}, "dilations": {"list": {"i": ["1", "1", "1", "1"]}}}}, {"name": "StatefulPartitionedCall/EfficientNetV1B0/activation_30/Sigmoid", "op": "Sigmoid", "input": ["StatefulPartitionedCall/EfficientNetV1B0/stack_6_block0_se_1_conv/BiasAdd"], "attr": {"T": {"type": "DT_FLOAT"}}}, {"name": "StatefulPartitionedCall/EfficientNetV1B0/activation_30/mul", "op": "Mul", "input": ["StatefulPartitionedCall/EfficientNetV1B0/stack_6_block0_se_1_conv/BiasAdd", "StatefulPartitionedCall/EfficientNetV1B0/activation_30/Sigmoid"], "attr": {"T": {"type": "DT_FLOAT"}}}, {"name": "StatefulPartitionedCall/EfficientNetV1B0/stack_6_block0_se_2_conv/BiasAdd", "op": "_FusedConv2D", "input": ["StatefulPartitionedCall/EfficientNetV1B0/activation_30/mul", "StatefulPartitionedCall/EfficientNetV1B0/stack_6_block0_se_2_conv/Conv2D/ReadVariableOp", "StatefulPartitionedCall/EfficientNetV1B0/stack_6_block0_se_2_conv/BiasAdd/ReadVariableOp"], "device": "/device:CPU:0", "attr": {"fused_ops": {"list": {"s": ["Qmlhc0FkZA=="]}}, "epsilon": {"f": 0.0}, "dilations": {"list": {"i": ["1", "1", "1", "1"]}}, "padding": {"s": "VkFMSUQ="}, "use_cudnn_on_gpu": {"b": true}, "data_format": {"s": "TkhXQw=="}, "T": {"type": "DT_FLOAT"}, "strides": {"list": {"i": ["1", "1", "1", "1"]}}, "num_args": {"i": "1"}, "explicit_paddings": {"list": {}}}}, {"name": "StatefulPartitionedCall/EfficientNetV1B0/activation_31/Sigmoid", "op": "Sigmoid", "input": ["StatefulPartitionedCall/EfficientNetV1B0/stack_6_block0_se_2_conv/BiasAdd"], "attr": {"T": {"type": "DT_FLOAT"}}}, {"name": "StatefulPartitionedCall/EfficientNetV1B0/multiply_15/mul", "op": "Mul", "input": ["StatefulPartitionedCall/EfficientNetV1B0/stack_6_block0_MB_dw_swish/mul", "StatefulPartitionedCall/EfficientNetV1B0/activation_31/Sigmoid"], "attr": {"T": {"type": "DT_FLOAT"}}}, {"name": "StatefulPartitionedCall/EfficientNetV1B0/stack_6_block0_MB_pw_bn/FusedBatchNormV3", "op": "_FusedConv2D", "input": ["StatefulPartitionedCall/EfficientNetV1B0/multiply_15/mul", "StatefulPartitionedCall/EfficientNetV1B0/stack_6_block0_MB_pw_conv/Conv2D_weights", "StatefulPartitionedCall/EfficientNetV1B0/stack_6_block0_MB_pw_conv/Conv2D_bn_offset"], "device": "/device:CPU:0", "attr": {"padding": {"s": "VkFMSUQ="}, "fused_ops": {"list": {"s": ["Qmlhc0FkZA=="]}}, "num_args": {"i": "1"}, "explicit_paddings": {"list": {}}, "epsilon": {"f": 0.0}, "dilations": {"list": {"i": ["1", "1", "1", "1"]}}, "T": {"type": "DT_FLOAT"}, "strides": {"list": {"i": ["1", "1", "1", "1"]}}, "data_format": {"s": "TkhXQw=="}, "use_cudnn_on_gpu": {"b": true}}}, {"name": "StatefulPartitionedCall/EfficientNetV1B0/post_bn/FusedBatchNormV3", "op": "_FusedConv2D", "input": ["StatefulPartitionedCall/EfficientNetV1B0/stack_6_block0_MB_pw_bn/FusedBatchNormV3", "StatefulPartitionedCall/EfficientNetV1B0/post_conv/Conv2D_weights", "StatefulPartitionedCall/EfficientNetV1B0/post_conv/Conv2D_bn_offset"], "device": "/device:CPU:0", "attr": {"data_format": {"s": "TkhXQw=="}, "strides": {"list": {"i": ["1", "1", "1", "1"]}}, "explicit_paddings": {"list": {}}, "use_cudnn_on_gpu": {"b": true}, "dilations": {"list": {"i": ["1", "1", "1", "1"]}}, "padding": {"s": "VkFMSUQ="}, "num_args": {"i": "1"}, "epsilon": {"f": 0.0}, "fused_ops": {"list": {"s": ["Qmlhc0FkZA=="]}}, "T": {"type": "DT_FLOAT"}}}, {"name": "StatefulPartitionedCall/EfficientNetV1B0/post_swish/Sigmoid", "op": "Sigmoid", "input": ["StatefulPartitionedCall/EfficientNetV1B0/post_bn/FusedBatchNormV3"], "attr": {"T": {"type": "DT_FLOAT"}}}, {"name": "StatefulPartitionedCall/EfficientNetV1B0/post_swish/mul", "op": "Mul", "input": ["StatefulPartitionedCall/EfficientNetV1B0/post_bn/FusedBatchNormV3", "StatefulPartitionedCall/EfficientNetV1B0/post_swish/Sigmoid"], "attr": {"T": {"type": "DT_FLOAT"}}}, {"name": "StatefulPartitionedCall/EfficientNetV1B0/avg_pool/Mean", "op": "Mean", "input": ["StatefulPartitionedCall/EfficientNetV1B0/post_swish/mul", "StatefulPartitionedCall/EfficientNetV1B0/avg_pool/Mean/reduction_indices"], "attr": {"keep_dims": {"b": false}, "Tidx": {"type": "DT_INT32"}, "T": {"type": "DT_FLOAT"}}}, {"name": "StatefulPartitionedCall/EfficientNetV1B0/predictions/BiasAdd", "op": "_FusedMatMul", "input": ["StatefulPartitionedCall/EfficientNetV1B0/avg_pool/Mean", "StatefulPartitionedCall/EfficientNetV1B0/predictions/MatMul/ReadVariableOp", "StatefulPartitionedCall/EfficientNetV1B0/predictions/BiasAdd/ReadVariableOp"], "device": "/device:CPU:0", "attr": {"T": {"type": "DT_FLOAT"}, "transpose_b": {"b": false}, "transpose_a": {"b": false}, "num_args": {"i": "1"}, "epsilon": {"f": 0.0}, "fused_ops": {"list": {"s": ["Qmlhc0FkZA=="]}}}}, {"name": "StatefulPartitionedCall/EfficientNetV1B0/predictions/Softmax", "op": "Softmax", "input": ["StatefulPartitionedCall/EfficientNetV1B0/predictions/BiasAdd"], "attr": {"T": {"type": "DT_FLOAT"}}}, {"name": "Identity", "op": "Identity", "input": ["StatefulPartitionedCall/EfficientNetV1B0/predictions/Softmax"], "attr": {"T": {"type": "DT_FLOAT"}}}], "library": {}, "versions": {"producer": 898}}, "weightsManifest": [{"paths": ["group1-shard1of4.bin", "group1-shard2of4.bin", "group1-shard3of4.bin", "group1-shard4of4.bin"], "weights": [{"name": "StatefulPartitionedCall/EfficientNetV1B0/tf.math.reduce_mean/Mean/reduction_indices", "shape": [2], "dtype": "int32"}, {"name": "StatefulPartitionedCall/EfficientNetV1B0/stack_0_block0_se_1_conv/Conv2D/ReadVariableOp", "shape": [1, 1, 32, 8], "dtype": "float32"}, {"name": "StatefulPartitionedCall/EfficientNetV1B0/stack_0_block0_se_1_conv/BiasAdd/ReadVariableOp", "shape": [8], "dtype": "float32"}, {"name": "StatefulPartitionedCall/EfficientNetV1B0/stack_0_block0_se_2_conv/Conv2D/ReadVariableOp", "shape": [1, 1, 8, 32], "dtype": "float32"}, {"name": "StatefulPartitionedCall/EfficientNetV1B0/stack_0_block0_se_2_conv/BiasAdd/ReadVariableOp", "shape": [32], "dtype": "float32"}, {"name": "StatefulPartitionedCall/EfficientNetV1B0/tf.math.reduce_mean_1/Mean/reduction_indices", "shape": [2], "dtype": "int32"}, {"name": "StatefulPartitionedCall/EfficientNetV1B0/stack_1_block0_se_1_conv/Conv2D/ReadVariableOp", "shape": [1, 1, 96, 4], "dtype": "float32"}, {"name": "StatefulPartitionedCall/EfficientNetV1B0/stack_1_block0_se_1_conv/BiasAdd/ReadVariableOp", "shape": [4], "dtype": "float32"}, {"name": "StatefulPartitionedCall/EfficientNetV1B0/stack_1_block0_se_2_conv/Conv2D/ReadVariableOp", "shape": [1, 1, 4, 96], "dtype": "float32"}, {"name": "StatefulPartitionedCall/EfficientNetV1B0/stack_1_block0_se_2_conv/BiasAdd/ReadVariableOp", "shape": [96], "dtype": "float32"}, {"name": "StatefulPartitionedCall/EfficientNetV1B0/tf.math.reduce_mean_2/Mean/reduction_indices", "shape": [2], "dtype": "int32"}, {"name": "StatefulPartitionedCall/EfficientNetV1B0/stack_1_block1_se_1_conv/Conv2D/ReadVariableOp", "shape": [1, 1, 144, 6], "dtype": "float32"}, {"name": "StatefulPartitionedCall/EfficientNetV1B0/stack_1_block1_se_1_conv/BiasAdd/ReadVariableOp", "shape": [6], "dtype": "float32"}, {"name": "StatefulPartitionedCall/EfficientNetV1B0/stack_1_block1_se_2_conv/Conv2D/ReadVariableOp", "shape": [1, 1, 6, 144], "dtype": "float32"}, {"name": "StatefulPartitionedCall/EfficientNetV1B0/stack_1_block1_se_2_conv/BiasAdd/ReadVariableOp", "shape": [144], "dtype": "float32"}, {"name": "StatefulPartitionedCall/EfficientNetV1B0/tf.math.reduce_mean_3/Mean/reduction_indices", "shape": [2], "dtype": "int32"}, {"name": "StatefulPartitionedCall/EfficientNetV1B0/stack_2_block0_se_1_conv/Conv2D/ReadVariableOp", "shape": [1, 1, 144, 6], "dtype": "float32"}, {"name": "StatefulPartitionedCall/EfficientNetV1B0/stack_2_block0_se_1_conv/BiasAdd/ReadVariableOp", "shape": [6], "dtype": "float32"}, {"name": "StatefulPartitionedCall/EfficientNetV1B0/stack_2_block0_se_2_conv/Conv2D/ReadVariableOp", "shape": [1, 1, 6, 144], "dtype": "float32"}, {"name": "StatefulPartitionedCall/EfficientNetV1B0/stack_2_block0_se_2_conv/BiasAdd/ReadVariableOp", "shape": [144], "dtype": "float32"}, {"name": "StatefulPartitionedCall/EfficientNetV1B0/tf.math.reduce_mean_4/Mean/reduction_indices", "shape": [2], "dtype": "int32"}, {"name": "StatefulPartitionedCall/EfficientNetV1B0/stack_2_block1_se_1_conv/Conv2D/ReadVariableOp", "shape": [1, 1, 240, 10], "dtype": "float32"}, {"name": "StatefulPartitionedCall/EfficientNetV1B0/stack_2_block1_se_1_conv/BiasAdd/ReadVariableOp", "shape": [10], "dtype": "float32"}, {"name": "StatefulPartitionedCall/EfficientNetV1B0/stack_2_block1_se_2_conv/Conv2D/ReadVariableOp", "shape": [1, 1, 10, 240], "dtype": "float32"}, {"name": "StatefulPartitionedCall/EfficientNetV1B0/stack_2_block1_se_2_conv/BiasAdd/ReadVariableOp", "shape": [240], "dtype": "float32"}, {"name": "StatefulPartitionedCall/EfficientNetV1B0/tf.math.reduce_mean_5/Mean/reduction_indices", "shape": [2], "dtype": "int32"}, {"name": "StatefulPartitionedCall/EfficientNetV1B0/stack_3_block0_se_1_conv/Conv2D/ReadVariableOp", "shape": [1, 1, 240, 10], "dtype": "float32"}, {"name": "StatefulPartitionedCall/EfficientNetV1B0/stack_3_block0_se_1_conv/BiasAdd/ReadVariableOp", "shape": [10], "dtype": "float32"}, {"name": "StatefulPartitionedCall/EfficientNetV1B0/stack_3_block0_se_2_conv/Conv2D/ReadVariableOp", "shape": [1, 1, 10, 240], "dtype": "float32"}, {"name": "StatefulPartitionedCall/EfficientNetV1B0/stack_3_block0_se_2_conv/BiasAdd/ReadVariableOp", "shape": [240], "dtype": "float32"}, {"name": "StatefulPartitionedCall/EfficientNetV1B0/tf.math.reduce_mean_6/Mean/reduction_indices", "shape": [2], "dtype": "int32"}, {"name": "StatefulPartitionedCall/EfficientNetV1B0/stack_3_block1_se_1_conv/Conv2D/ReadVariableOp", "shape": [1, 1, 480, 20], "dtype": "float32"}, {"name": "StatefulPartitionedCall/EfficientNetV1B0/stack_3_block1_se_1_conv/BiasAdd/ReadVariableOp", "shape": [20], "dtype": "float32"}, {"name": "StatefulPartitionedCall/EfficientNetV1B0/stack_3_block1_se_2_conv/Conv2D/ReadVariableOp", "shape": [1, 1, 20, 480], "dtype": "float32"}, {"name": "StatefulPartitionedCall/EfficientNetV1B0/stack_3_block1_se_2_conv/BiasAdd/ReadVariableOp", "shape": [480], "dtype": "float32"}, {"name": "StatefulPartitionedCall/EfficientNetV1B0/tf.math.reduce_mean_7/Mean/reduction_indices", "shape": [2], "dtype": "int32"}, {"name": "StatefulPartitionedCall/EfficientNetV1B0/stack_3_block2_se_1_conv/Conv2D/ReadVariableOp", "shape": [1, 1, 480, 20], "dtype": "float32"}, {"name": "StatefulPartitionedCall/EfficientNetV1B0/stack_3_block2_se_1_conv/BiasAdd/ReadVariableOp", "shape": [20], "dtype": "float32"}, {"name": "StatefulPartitionedCall/EfficientNetV1B0/stack_3_block2_se_2_conv/Conv2D/ReadVariableOp", "shape": [1, 1, 20, 480], "dtype": "float32"}, {"name": "StatefulPartitionedCall/EfficientNetV1B0/stack_3_block2_se_2_conv/BiasAdd/ReadVariableOp", "shape": [480], "dtype": "float32"}, {"name": "StatefulPartitionedCall/EfficientNetV1B0/tf.math.reduce_mean_8/Mean/reduction_indices", "shape": [2], "dtype": "int32"}, {"name": "StatefulPartitionedCall/EfficientNetV1B0/stack_4_block0_se_1_conv/Conv2D/ReadVariableOp", "shape": [1, 1, 480, 20], "dtype": "float32"}, {"name": "StatefulPartitionedCall/EfficientNetV1B0/stack_4_block0_se_1_conv/BiasAdd/ReadVariableOp", "shape": [20], "dtype": "float32"}, {"name": "StatefulPartitionedCall/EfficientNetV1B0/stack_4_block0_se_2_conv/Conv2D/ReadVariableOp", "shape": [1, 1, 20, 480], "dtype": "float32"}, {"name": "StatefulPartitionedCall/EfficientNetV1B0/stack_4_block0_se_2_conv/BiasAdd/ReadVariableOp", "shape": [480], "dtype": "float32"}, {"name": "StatefulPartitionedCall/EfficientNetV1B0/tf.math.reduce_mean_9/Mean/reduction_indices", "shape": [2], "dtype": "int32"}, {"name": "StatefulPartitionedCall/EfficientNetV1B0/stack_4_block1_se_1_conv/Conv2D/ReadVariableOp", "shape": [1, 1, 672, 28], "dtype": "float32"}, {"name": "StatefulPartitionedCall/EfficientNetV1B0/stack_4_block1_se_1_conv/BiasAdd/ReadVariableOp", "shape": [28], "dtype": "float32"}, {"name": "StatefulPartitionedCall/EfficientNetV1B0/stack_4_block1_se_2_conv/Conv2D/ReadVariableOp", "shape": [1, 1, 28, 672], "dtype": "float32"}, {"name": "StatefulPartitionedCall/EfficientNetV1B0/stack_4_block1_se_2_conv/BiasAdd/ReadVariableOp", "shape": [672], "dtype": "float32"}, {"name": "StatefulPartitionedCall/EfficientNetV1B0/tf.math.reduce_mean_10/Mean/reduction_indices", "shape": [2], "dtype": "int32"}, {"name": "StatefulPartitionedCall/EfficientNetV1B0/stack_4_block2_se_1_conv/Conv2D/ReadVariableOp", "shape": [1, 1, 672, 28], "dtype": "float32"}, {"name": "StatefulPartitionedCall/EfficientNetV1B0/stack_4_block2_se_1_conv/BiasAdd/ReadVariableOp", "shape": [28], "dtype": "float32"}, {"name": "StatefulPartitionedCall/EfficientNetV1B0/stack_4_block2_se_2_conv/Conv2D/ReadVariableOp", "shape": [1, 1, 28, 672], "dtype": "float32"}, {"name": "StatefulPartitionedCall/EfficientNetV1B0/stack_4_block2_se_2_conv/BiasAdd/ReadVariableOp", "shape": [672], "dtype": "float32"}, {"name": "StatefulPartitionedCall/EfficientNetV1B0/tf.math.reduce_mean_11/Mean/reduction_indices", "shape": [2], "dtype": "int32"}, {"name": "StatefulPartitionedCall/EfficientNetV1B0/stack_5_block0_se_1_conv/Conv2D/ReadVariableOp", "shape": [1, 1, 672, 28], "dtype": "float32"}, {"name": "StatefulPartitionedCall/EfficientNetV1B0/stack_5_block0_se_1_conv/BiasAdd/ReadVariableOp", "shape": [28], "dtype": "float32"}, {"name": "StatefulPartitionedCall/EfficientNetV1B0/stack_5_block0_se_2_conv/Conv2D/ReadVariableOp", "shape": [1, 1, 28, 672], "dtype": "float32"}, {"name": "StatefulPartitionedCall/EfficientNetV1B0/stack_5_block0_se_2_conv/BiasAdd/ReadVariableOp", "shape": [672], "dtype": "float32"}, {"name": "StatefulPartitionedCall/EfficientNetV1B0/tf.math.reduce_mean_12/Mean/reduction_indices", "shape": [2], "dtype": "int32"}, {"name": "StatefulPartitionedCall/EfficientNetV1B0/stack_5_block1_se_1_conv/Conv2D/ReadVariableOp", "shape": [1, 1, 1152, 48], "dtype": "float32"}, {"name": "StatefulPartitionedCall/EfficientNetV1B0/stack_5_block1_se_1_conv/BiasAdd/ReadVariableOp", "shape": [48], "dtype": "float32"}, {"name": "StatefulPartitionedCall/EfficientNetV1B0/stack_5_block1_se_2_conv/Conv2D/ReadVariableOp", "shape": [1, 1, 48, 1152], "dtype": "float32"}, {"name": "StatefulPartitionedCall/EfficientNetV1B0/stack_5_block1_se_2_conv/BiasAdd/ReadVariableOp", "shape": [1152], "dtype": "float32"}, {"name": "StatefulPartitionedCall/EfficientNetV1B0/tf.math.reduce_mean_13/Mean/reduction_indices", "shape": [2], "dtype": "int32"}, {"name": "StatefulPartitionedCall/EfficientNetV1B0/stack_5_block2_se_1_conv/Conv2D/ReadVariableOp", "shape": [1, 1, 1152, 48], "dtype": "float32"}, {"name": "StatefulPartitionedCall/EfficientNetV1B0/stack_5_block2_se_1_conv/BiasAdd/ReadVariableOp", "shape": [48], "dtype": "float32"}, {"name": "StatefulPartitionedCall/EfficientNetV1B0/stack_5_block2_se_2_conv/Conv2D/ReadVariableOp", "shape": [1, 1, 48, 1152], "dtype": "float32"}, {"name": "StatefulPartitionedCall/EfficientNetV1B0/stack_5_block2_se_2_conv/BiasAdd/ReadVariableOp", "shape": [1152], "dtype": "float32"}, {"name": "StatefulPartitionedCall/EfficientNetV1B0/tf.math.reduce_mean_14/Mean/reduction_indices", "shape": [2], "dtype": "int32"}, {"name": "StatefulPartitionedCall/EfficientNetV1B0/stack_5_block3_se_1_conv/Conv2D/ReadVariableOp", "shape": [1, 1, 1152, 48], "dtype": "float32"}, {"name": "StatefulPartitionedCall/EfficientNetV1B0/stack_5_block3_se_1_conv/BiasAdd/ReadVariableOp", "shape": [48], "dtype": "float32"}, {"name": "StatefulPartitionedCall/EfficientNetV1B0/stack_5_block3_se_2_conv/Conv2D/ReadVariableOp", "shape": [1, 1, 48, 1152], "dtype": "float32"}, {"name": "StatefulPartitionedCall/EfficientNetV1B0/stack_5_block3_se_2_conv/BiasAdd/ReadVariableOp", "shape": [1152], "dtype": "float32"}, {"name": "StatefulPartitionedCall/EfficientNetV1B0/tf.math.reduce_mean_15/Mean/reduction_indices", "shape": [2], "dtype": "int32"}, {"name": "StatefulPartitionedCall/EfficientNetV1B0/stack_6_block0_se_1_conv/Conv2D/ReadVariableOp", "shape": [1, 1, 1152, 48], "dtype": "float32"}, {"name": "StatefulPartitionedCall/EfficientNetV1B0/stack_6_block0_se_1_conv/BiasAdd/ReadVariableOp", "shape": [48], "dtype": "float32"}, {"name": "StatefulPartitionedCall/EfficientNetV1B0/stack_6_block0_se_2_conv/Conv2D/ReadVariableOp", "shape": [1, 1, 48, 1152], "dtype": "float32"}, {"name": "StatefulPartitionedCall/EfficientNetV1B0/stack_6_block0_se_2_conv/BiasAdd/ReadVariableOp", "shape": [1152], "dtype": "float32"}, {"name": "StatefulPartitionedCall/EfficientNetV1B0/avg_pool/Mean/reduction_indices", "shape": [2], "dtype": "int32"}, {"name": "StatefulPartitionedCall/EfficientNetV1B0/predictions/MatMul/ReadVariableOp", "shape": [1280, 26], "dtype": "float32"}, {"name": "StatefulPartitionedCall/EfficientNetV1B0/predictions/BiasAdd/ReadVariableOp", "shape": [26], "dtype": "float32"}, {"name": "StatefulPartitionedCall/EfficientNetV1B0/stem_conv/Conv2D_weights", "shape": [3, 3, 3, 32], "dtype": "float32"}, {"name": "StatefulPartitionedCall/EfficientNetV1B0/post_conv/Conv2D_weights", "shape": [1, 1, 320, 1280], "dtype": "float32"}, {"name": "StatefulPartitionedCall/EfficientNetV1B0/stem_conv/Conv2D_bn_offset", "shape": [32], "dtype": "float32"}, {"name": "StatefulPartitionedCall/EfficientNetV1B0/stack_0_block0_MB_dw_/depthwise_weights", "shape": [3, 3, 32, 1], "dtype": "float32"}, {"name": "StatefulPartitionedCall/EfficientNetV1B0/stack_0_block0_MB_dw_/depthwise_bn_offset", "shape": [32], "dtype": "float32"}, {"name": "StatefulPartitionedCall/EfficientNetV1B0/stack_5_block2_MB_pw_conv/Conv2D_bn_offset", "shape": [192], "dtype": "float32"}, {"name": "StatefulPartitionedCall/EfficientNetV1B0/stack_0_block0_MB_pw_conv/Conv2D_weights", "shape": [1, 1, 32, 16], "dtype": "float32"}, {"name": "StatefulPartitionedCall/EfficientNetV1B0/stack_0_block0_MB_pw_conv/Conv2D_bn_offset", "shape": [16], "dtype": "float32"}, {"name": "StatefulPartitionedCall/EfficientNetV1B0/stack_1_block0_sortcut_conv/Conv2D_weights", "shape": [1, 1, 16, 96], "dtype": "float32"}, {"name": "StatefulPartitionedCall/EfficientNetV1B0/stack_5_block3_sortcut_conv/Conv2D_weights", "shape": [1, 1, 192, 1152], "dtype": "float32"}, {"name": "StatefulPartitionedCall/EfficientNetV1B0/stack_1_block0_sortcut_conv/Conv2D_bn_offset", "shape": [96], "dtype": "float32"}, {"name": "StatefulPartitionedCall/EfficientNetV1B0/stack_1_block0_MB_dw_/depthwise_weights", "shape": [3, 3, 96, 1], "dtype": "float32"}, {"name": "StatefulPartitionedCall/EfficientNetV1B0/stack_1_block0_MB_dw_/depthwise_bn_offset", "shape": [96], "dtype": "float32"}, {"name": "StatefulPartitionedCall/EfficientNetV1B0/stack_5_block3_sortcut_conv/Conv2D_bn_offset", "shape": [1152], "dtype": "float32"}, {"name": "StatefulPartitionedCall/EfficientNetV1B0/stack_1_block0_MB_pw_conv/Conv2D_weights", "shape": [1, 1, 96, 24], "dtype": "float32"}, {"name": "StatefulPartitionedCall/EfficientNetV1B0/stack_1_block0_MB_pw_conv/Conv2D_bn_offset", "shape": [24], "dtype": "float32"}, {"name": "StatefulPartitionedCall/EfficientNetV1B0/stack_1_block1_sortcut_conv/Conv2D_weights", "shape": [1, 1, 24, 144], "dtype": "float32"}, {"name": "StatefulPartitionedCall/EfficientNetV1B0/stack_1_block1_sortcut_conv/Conv2D_bn_offset", "shape": [144], "dtype": "float32"}, {"name": "StatefulPartitionedCall/EfficientNetV1B0/stack_1_block1_MB_dw_/depthwise_weights", "shape": [3, 3, 144, 1], "dtype": "float32"}, {"name": "StatefulPartitionedCall/EfficientNetV1B0/stack_1_block1_MB_dw_/depthwise_bn_offset", "shape": [144], "dtype": "float32"}, {"name": "StatefulPartitionedCall/EfficientNetV1B0/stack_5_block3_MB_dw_/depthwise_weights", "shape": [5, 5, 1152, 1], "dtype": "float32"}, {"name": "StatefulPartitionedCall/EfficientNetV1B0/stack_1_block1_MB_pw_conv/Conv2D_weights", "shape": [1, 1, 144, 24], "dtype": "float32"}, {"name": "StatefulPartitionedCall/EfficientNetV1B0/stack_1_block1_MB_pw_conv/Conv2D_bn_offset", "shape": [24], "dtype": "float32"}, {"name": "StatefulPartitionedCall/EfficientNetV1B0/stack_2_block0_sortcut_conv/Conv2D_weights", "shape": [1, 1, 24, 144], "dtype": "float32"}, {"name": "StatefulPartitionedCall/EfficientNetV1B0/stack_5_block3_MB_dw_/depthwise_bn_offset", "shape": [1152], "dtype": "float32"}, {"name": "StatefulPartitionedCall/EfficientNetV1B0/stack_2_block0_sortcut_conv/Conv2D_bn_offset", "shape": [144], "dtype": "float32"}, {"name": "StatefulPartitionedCall/EfficientNetV1B0/stack_2_block0_MB_dw_/depthwise_weights", "shape": [5, 5, 144, 1], "dtype": "float32"}, {"name": "StatefulPartitionedCall/EfficientNetV1B0/stack_2_block0_MB_dw_/depthwise_bn_offset", "shape": [144], "dtype": "float32"}, {"name": "StatefulPartitionedCall/EfficientNetV1B0/stack_2_block0_MB_pw_conv/Conv2D_weights", "shape": [1, 1, 144, 40], "dtype": "float32"}, {"name": "StatefulPartitionedCall/EfficientNetV1B0/stack_2_block0_MB_pw_conv/Conv2D_bn_offset", "shape": [40], "dtype": "float32"}, {"name": "StatefulPartitionedCall/EfficientNetV1B0/stack_2_block1_sortcut_conv/Conv2D_weights", "shape": [1, 1, 40, 240], "dtype": "float32"}, {"name": "StatefulPartitionedCall/EfficientNetV1B0/stack_2_block1_sortcut_conv/Conv2D_bn_offset", "shape": [240], "dtype": "float32"}, {"name": "StatefulPartitionedCall/EfficientNetV1B0/stack_2_block1_MB_dw_/depthwise_weights", "shape": [5, 5, 240, 1], "dtype": "float32"}, {"name": "StatefulPartitionedCall/EfficientNetV1B0/stack_2_block1_MB_dw_/depthwise_bn_offset", "shape": [240], "dtype": "float32"}, {"name": "StatefulPartitionedCall/EfficientNetV1B0/post_conv/Conv2D_bn_offset", "shape": [1280], "dtype": "float32"}, {"name": "StatefulPartitionedCall/EfficientNetV1B0/stack_2_block1_MB_pw_conv/Conv2D_weights", "shape": [1, 1, 240, 40], "dtype": "float32"}, {"name": "StatefulPartitionedCall/EfficientNetV1B0/stack_2_block1_MB_pw_conv/Conv2D_bn_offset", "shape": [40], "dtype": "float32"}, {"name": "StatefulPartitionedCall/EfficientNetV1B0/stack_3_block0_sortcut_conv/Conv2D_weights", "shape": [1, 1, 40, 240], "dtype": "float32"}, {"name": "StatefulPartitionedCall/EfficientNetV1B0/stack_3_block0_sortcut_conv/Conv2D_bn_offset", "shape": [240], "dtype": "float32"}, {"name": "StatefulPartitionedCall/EfficientNetV1B0/stack_3_block0_MB_dw_/depthwise_weights", "shape": [3, 3, 240, 1], "dtype": "float32"}, {"name": "StatefulPartitionedCall/EfficientNetV1B0/stack_3_block0_MB_dw_/depthwise_bn_offset", "shape": [240], "dtype": "float32"}, {"name": "StatefulPartitionedCall/EfficientNetV1B0/stack_3_block0_MB_pw_conv/Conv2D_weights", "shape": [1, 1, 240, 80], "dtype": "float32"}, {"name": "StatefulPartitionedCall/EfficientNetV1B0/stack_3_block0_MB_pw_conv/Conv2D_bn_offset", "shape": [80], "dtype": "float32"}, {"name": "StatefulPartitionedCall/EfficientNetV1B0/stack_3_block1_sortcut_conv/Conv2D_weights", "shape": [1, 1, 80, 480], "dtype": "float32"}, {"name": "StatefulPartitionedCall/EfficientNetV1B0/stack_3_block1_sortcut_conv/Conv2D_bn_offset", "shape": [480], "dtype": "float32"}, {"name": "StatefulPartitionedCall/EfficientNetV1B0/stack_3_block1_MB_dw_/depthwise_weights", "shape": [3, 3, 480, 1], "dtype": "float32"}, {"name": "StatefulPartitionedCall/EfficientNetV1B0/stack_3_block1_MB_dw_/depthwise_bn_offset", "shape": [480], "dtype": "float32"}, {"name": "StatefulPartitionedCall/EfficientNetV1B0/stack_5_block3_MB_pw_conv/Conv2D_weights", "shape": [1, 1, 1152, 192], "dtype": "float32"}, {"name": "StatefulPartitionedCall/EfficientNetV1B0/stack_3_block1_MB_pw_conv/Conv2D_weights", "shape": [1, 1, 480, 80], "dtype": "float32"}, {"name": "StatefulPartitionedCall/EfficientNetV1B0/stack_5_block3_MB_pw_conv/Conv2D_bn_offset", "shape": [192], "dtype": "float32"}, {"name": "StatefulPartitionedCall/EfficientNetV1B0/stack_3_block1_MB_pw_conv/Conv2D_bn_offset", "shape": [80], "dtype": "float32"}, {"name": "StatefulPartitionedCall/EfficientNetV1B0/stack_3_block2_sortcut_conv/Conv2D_weights", "shape": [1, 1, 80, 480], "dtype": "float32"}, {"name": "StatefulPartitionedCall/EfficientNetV1B0/stack_3_block2_sortcut_conv/Conv2D_bn_offset", "shape": [480], "dtype": "float32"}, {"name": "StatefulPartitionedCall/EfficientNetV1B0/stack_3_block2_MB_dw_/depthwise_weights", "shape": [3, 3, 480, 1], "dtype": "float32"}, {"name": "StatefulPartitionedCall/EfficientNetV1B0/stack_3_block2_MB_dw_/depthwise_bn_offset", "shape": [480], "dtype": "float32"}, {"name": "StatefulPartitionedCall/EfficientNetV1B0/stack_6_block0_sortcut_conv/Conv2D_weights", "shape": [1, 1, 192, 1152], "dtype": "float32"}, {"name": "StatefulPartitionedCall/EfficientNetV1B0/stack_3_block2_MB_pw_conv/Conv2D_weights", "shape": [1, 1, 480, 80], "dtype": "float32"}, {"name": "StatefulPartitionedCall/EfficientNetV1B0/stack_3_block2_MB_pw_conv/Conv2D_bn_offset", "shape": [80], "dtype": "float32"}, {"name": "StatefulPartitionedCall/EfficientNetV1B0/stack_4_block0_sortcut_conv/Conv2D_weights", "shape": [1, 1, 80, 480], "dtype": "float32"}, {"name": "StatefulPartitionedCall/EfficientNetV1B0/stack_6_block0_sortcut_conv/Conv2D_bn_offset", "shape": [1152], "dtype": "float32"}, {"name": "StatefulPartitionedCall/EfficientNetV1B0/stack_4_block0_sortcut_conv/Conv2D_bn_offset", "shape": [480], "dtype": "float32"}, {"name": "StatefulPartitionedCall/EfficientNetV1B0/stack_4_block0_MB_dw_/depthwise_weights", "shape": [5, 5, 480, 1], "dtype": "float32"}, {"name": "StatefulPartitionedCall/EfficientNetV1B0/stack_4_block0_MB_dw_/depthwise_bn_offset", "shape": [480], "dtype": "float32"}, {"name": "StatefulPartitionedCall/EfficientNetV1B0/stack_4_block0_MB_pw_conv/Conv2D_weights", "shape": [1, 1, 480, 112], "dtype": "float32"}, {"name": "StatefulPartitionedCall/EfficientNetV1B0/stack_4_block0_MB_pw_conv/Conv2D_bn_offset", "shape": [112], "dtype": "float32"}, {"name": "StatefulPartitionedCall/EfficientNetV1B0/stack_4_block1_sortcut_conv/Conv2D_weights", "shape": [1, 1, 112, 672], "dtype": "float32"}, {"name": "StatefulPartitionedCall/EfficientNetV1B0/stack_6_block0_MB_dw_/depthwise_weights", "shape": [3, 3, 1152, 1], "dtype": "float32"}, {"name": "StatefulPartitionedCall/EfficientNetV1B0/stack_4_block1_sortcut_conv/Conv2D_bn_offset", "shape": [672], "dtype": "float32"}, {"name": "StatefulPartitionedCall/EfficientNetV1B0/stack_4_block1_MB_dw_/depthwise_weights", "shape": [5, 5, 672, 1], "dtype": "float32"}, {"name": "StatefulPartitionedCall/EfficientNetV1B0/stack_4_block1_MB_dw_/depthwise_bn_offset", "shape": [672], "dtype": "float32"}, {"name": "StatefulPartitionedCall/EfficientNetV1B0/stack_6_block0_MB_dw_/depthwise_bn_offset", "shape": [1152], "dtype": "float32"}, {"name": "StatefulPartitionedCall/EfficientNetV1B0/stack_4_block1_MB_pw_conv/Conv2D_weights", "shape": [1, 1, 672, 112], "dtype": "float32"}, {"name": "StatefulPartitionedCall/EfficientNetV1B0/stack_4_block1_MB_pw_conv/Conv2D_bn_offset", "shape": [112], "dtype": "float32"}, {"name": "StatefulPartitionedCall/EfficientNetV1B0/stack_4_block2_sortcut_conv/Conv2D_weights", "shape": [1, 1, 112, 672], "dtype": "float32"}, {"name": "StatefulPartitionedCall/EfficientNetV1B0/stack_4_block2_sortcut_conv/Conv2D_bn_offset", "shape": [672], "dtype": "float32"}, {"name": "StatefulPartitionedCall/EfficientNetV1B0/stack_4_block2_MB_dw_/depthwise_weights", "shape": [5, 5, 672, 1], "dtype": "float32"}, {"name": "StatefulPartitionedCall/EfficientNetV1B0/stack_4_block2_MB_dw_/depthwise_bn_offset", "shape": [672], "dtype": "float32"}, {"name": "StatefulPartitionedCall/EfficientNetV1B0/stack_4_block2_MB_pw_conv/Conv2D_weights", "shape": [1, 1, 672, 112], "dtype": "float32"}, {"name": "StatefulPartitionedCall/EfficientNetV1B0/stack_4_block2_MB_pw_conv/Conv2D_bn_offset", "shape": [112], "dtype": "float32"}, {"name": "StatefulPartitionedCall/EfficientNetV1B0/stack_5_block0_sortcut_conv/Conv2D_weights", "shape": [1, 1, 112, 672], "dtype": "float32"}, {"name": "StatefulPartitionedCall/EfficientNetV1B0/stack_5_block0_sortcut_conv/Conv2D_bn_offset", "shape": [672], "dtype": "float32"}, {"name": "StatefulPartitionedCall/EfficientNetV1B0/stack_5_block0_MB_dw_/depthwise_weights", "shape": [5, 5, 672, 1], "dtype": "float32"}, {"name": "StatefulPartitionedCall/EfficientNetV1B0/stack_5_block0_MB_dw_/depthwise_bn_offset", "shape": [672], "dtype": "float32"}, {"name": "StatefulPartitionedCall/EfficientNetV1B0/stack_5_block0_MB_pw_conv/Conv2D_weights", "shape": [1, 1, 672, 192], "dtype": "float32"}, {"name": "StatefulPartitionedCall/EfficientNetV1B0/stack_5_block0_MB_pw_conv/Conv2D_bn_offset", "shape": [192], "dtype": "float32"}, {"name": "StatefulPartitionedCall/EfficientNetV1B0/stack_5_block1_sortcut_conv/Conv2D_weights", "shape": [1, 1, 192, 1152], "dtype": "float32"}, {"name": "StatefulPartitionedCall/EfficientNetV1B0/stack_5_block1_sortcut_conv/Conv2D_bn_offset", "shape": [1152], "dtype": "float32"}, {"name": "StatefulPartitionedCall/EfficientNetV1B0/stack_5_block1_MB_dw_/depthwise_weights", "shape": [5, 5, 1152, 1], "dtype": "float32"}, {"name": "StatefulPartitionedCall/EfficientNetV1B0/stack_5_block1_MB_dw_/depthwise_bn_offset", "shape": [1152], "dtype": "float32"}, {"name": "StatefulPartitionedCall/EfficientNetV1B0/stack_5_block1_MB_pw_conv/Conv2D_weights", "shape": [1, 1, 1152, 192], "dtype": "float32"}, {"name": "StatefulPartitionedCall/EfficientNetV1B0/stack_6_block0_MB_pw_conv/Conv2D_weights", "shape": [1, 1, 1152, 320], "dtype": "float32"}, {"name": "StatefulPartitionedCall/EfficientNetV1B0/stack_5_block1_MB_pw_conv/Conv2D_bn_offset", "shape": [192], "dtype": "float32"}, {"name": "StatefulPartitionedCall/EfficientNetV1B0/stack_5_block2_sortcut_conv/Conv2D_weights", "shape": [1, 1, 192, 1152], "dtype": "float32"}, {"name": "StatefulPartitionedCall/EfficientNetV1B0/stack_5_block2_sortcut_conv/Conv2D_bn_offset", "shape": [1152], "dtype": "float32"}, {"name": "StatefulPartitionedCall/EfficientNetV1B0/stack_5_block2_MB_dw_/depthwise_weights", "shape": [5, 5, 1152, 1], "dtype": "float32"}, {"name": "StatefulPartitionedCall/EfficientNetV1B0/stack_5_block2_MB_dw_/depthwise_bn_offset", "shape": [1152], "dtype": "float32"}, {"name": "StatefulPartitionedCall/EfficientNetV1B0/stack_6_block0_MB_pw_conv/Conv2D_bn_offset", "shape": [320], "dtype": "float32"}, {"name": "StatefulPartitionedCall/EfficientNetV1B0/stack_5_block2_MB_pw_conv/Conv2D_weights", "shape": [1, 1, 1152, 192], "dtype": "float32"}]}]}